{"format": "graph-model", "generatedBy": "2.12.0", "convertedBy": "TensorFlow.js Converter v4.6.0", "signature": {"outputs": {"Identity:0": {"name": "Identity:0"}}}, "modelTopology": {"node": [{"name": "ConstantFolding/PartitionedCall/model_2/tf.math.divide/truediv_recip", "op": "Const", "attr": {"value": {"tensor": {"dtype": "DT_FLOAT", "tensorShape": {"dim": [{"size": "1"}, {"size": "1"}, {"size": "1"}]}}}, "dtype": {"type": "DT_FLOAT"}}}, {"name": "1614", "op": "Const", "attr": {"value": {"tensor": {"dtype": "DT_FLOAT", "tensorShape": {"dim": [{"size": "1"}, {"size": "2"}, {"size": "3549"}]}}}, "dtype": {"type": "DT_FLOAT"}}}, {"name": "1606", "op": "Const", "attr": {"dtype": {"type": "DT_INT64"}, "value": {"tensor": {"dtype": "DT_INT64", "tensorShape": {"dim": [{"size": "3"}]}}}}}, {"name": "1608", "op": "Const", "attr": {"value": {"tensor": {"dtype": "DT_INT64", "tensorShape": {"dim": [{"size": "3"}]}}}, "dtype": {"type": "DT_INT64"}}}, {"name": "PartitionedCall/model_2/tf.strided_slice_39/ones_like", "op": "Const", "attr": {"dtype": {"type": "DT_INT64"}, "value": {"tensor": {"dtype": "DT_INT64", "tensorShape": {"dim": [{"size": "3"}]}}}}}, {"name": "1616", "op": "Const", "attr": {"value": {"tensor": {"dtype": "DT_FLOAT", "tensorShape": {"dim": [{"size": "1"}, {"size": "2"}, {"size": "3549"}]}}}, "dtype": {"type": "DT_FLOAT"}}}, {"name": "1600", "op": "Const", "attr": {"dtype": {"type": "DT_INT64"}, "value": {"tensor": {"dtype": "DT_INT64", "tensorShape": {"dim": [{"size": "3"}]}}}}}, {"name": "1602", "op": "Const", "attr": {"dtype": {"type": "DT_INT64"}, "value": {"tensor": {"dtype": "DT_INT64", "tensorShape": {"dim": [{"size": "3"}]}}}}}, {"name": "PartitionedCall/model_2/tf.strided_slice_33/StridedSlice/strides", "op": "Const", "attr": {"value": {"tensor": {"dtype": "DT_INT64", "tensorShape": {"dim": [{"size": "3"}]}}}, "dtype": {"type": "DT_INT64"}}}, {"name": "PartitionedCall/model_2/tf.reshape_3/Reshape/shape", "op": "Const", "attr": {"dtype": {"type": "DT_INT32"}, "value": {"tensor": {"dtype": "DT_INT32", "tensorShape": {"dim": [{"size": "4"}]}}}}}, {"name": "PartitionedCall/model_2/tf.compat.v1.transpose_4/transpose/perm", "op": "Const", "attr": {"dtype": {"type": "DT_INT32"}, "value": {"tensor": {"dtype": "DT_INT32", "tensorShape": {"dim": [{"size": "4"}]}}}}}, {"name": "PartitionedCall/model_2/tf.compat.v1.transpose_5/transpose/perm", "op": "Const", "attr": {"value": {"tensor": {"dtype": "DT_INT32", "tensorShape": {"dim": [{"size": "4"}]}}}, "dtype": {"type": "DT_INT32"}}}, {"name": "1604", "op": "Const", "attr": {"value": {"tensor": {"dtype": "DT_FLOAT", "tensorShape": {"dim": [{"size": "1"}, {"size": "1"}, {"size": "16"}, {"size": "1"}]}}}, "dtype": {"type": "DT_FLOAT"}}}, {"name": "PartitionedCall/model_2/tf.compat.v1.transpose_8/transpose/perm", "op": "Const", "attr": {"dtype": {"type": "DT_INT32"}, "value": {"tensor": {"dtype": "DT_INT32", "tensorShape": {"dim": [{"size": "4"}]}}}}}, {"name": "PartitionedCall/model_2/tf.reshape_4/Reshape/shape", "op": "Const", "attr": {"dtype": {"type": "DT_INT32"}, "value": {"tensor": {"dtype": "DT_INT32", "tensorShape": {"dim": [{"size": "3"}]}}}}}, {"name": "1610", "op": "Const", "attr": {"value": {"tensor": {"dtype": "DT_INT64", "tensorShape": {"dim": [{"size": "3"}]}}}, "dtype": {"type": "DT_INT64"}}}, {"name": "1612", "op": "Const", "attr": {"dtype": {"type": "DT_INT64"}, "value": {"tensor": {"dtype": "DT_INT64", "tensorShape": {"dim": [{"size": "3"}]}}}}}, {"name": "PartitionedCall/model_2/tf.strided_slice_37/ones_like", "op": "Const", "attr": {"value": {"tensor": {"dtype": "DT_INT64", "tensorShape": {"dim": [{"size": "3"}]}}}, "dtype": {"type": "DT_INT64"}}}, {"name": "PartitionedCall/model_2/tf.concat_17/concat/axis", "op": "Const", "attr": {"value": {"tensor": {"dtype": "DT_INT32", "tensorShape": {}}}, "dtype": {"type": "DT_INT32"}}}, {"name": "PartitionedCall/model_2/tf.math.multiply_251/Mul/y", "op": "Const", "attr": {"dtype": {"type": "DT_FLOAT"}, "value": {"tensor": {"dtype": "DT_FLOAT", "tensorShape": {"dim": [{"size": "1"}, {"size": "1"}, {"size": "3549"}]}}}}}, {"name": "1538", "op": "Const", "attr": {"value": {"tensor": {"dtype": "DT_FLOAT", "tensorShape": {"dim": [{"size": "3"}, {"size": "3"}, {"size": "192"}, {"size": "64"}]}}}, "dtype": {"type": "DT_FLOAT"}}}, {"name": "1550", "op": "Const", "attr": {"value": {"tensor": {"dtype": "DT_FLOAT", "tensorShape": {"dim": [{"size": "64"}]}}}, "dtype": {"type": "DT_FLOAT"}}}, {"name": "1562", "op": "Const", "attr": {"value": {"tensor": {"dtype": "DT_FLOAT", "tensorShape": {"dim": [{"size": "3"}, {"size": "3"}, {"size": "64"}, {"size": "64"}]}}}, "dtype": {"type": "DT_FLOAT"}}}, {"name": "1574", "op": "Const", "attr": {"value": {"tensor": {"dtype": "DT_FLOAT", "tensorShape": {"dim": [{"size": "64"}]}}}, "dtype": {"type": "DT_FLOAT"}}}, {"name": "1586", "op": "Const", "attr": {"value": {"tensor": {"dtype": "DT_FLOAT", "tensorShape": {"dim": [{"size": "1"}, {"size": "1"}, {"size": "64"}, {"size": "64"}]}}}, "dtype": {"type": "DT_FLOAT"}}}, {"name": "1596", "op": "Const", "attr": {"dtype": {"type": "DT_FLOAT"}, "value": {"tensor": {"dtype": "DT_FLOAT", "tensorShape": {"dim": [{"size": "64"}]}}}}}, {"name": "1536", "op": "Const", "attr": {"dtype": {"type": "DT_FLOAT"}, "value": {"tensor": {"dtype": "DT_FLOAT", "tensorShape": {"dim": [{"size": "3"}, {"size": "3"}, {"size": "192"}, {"size": "192"}]}}}}}, {"name": "1548", "op": "Const", "attr": {"dtype": {"type": "DT_FLOAT"}, "value": {"tensor": {"dtype": "DT_FLOAT", "tensorShape": {"dim": [{"size": "192"}]}}}}}, {"name": "1560", "op": "Const", "attr": {"value": {"tensor": {"dtype": "DT_FLOAT", "tensorShape": {"dim": [{"size": "3"}, {"size": "3"}, {"size": "192"}, {"size": "192"}]}}}, "dtype": {"type": "DT_FLOAT"}}}, {"name": "1572", "op": "Const", "attr": {"dtype": {"type": "DT_FLOAT"}, "value": {"tensor": {"dtype": "DT_FLOAT", "tensorShape": {"dim": [{"size": "192"}]}}}}}, {"name": "1584", "op": "Const", "attr": {"value": {"tensor": {"dtype": "DT_FLOAT", "tensorShape": {"dim": [{"size": "1"}, {"size": "1"}, {"size": "192"}, {"size": "13"}]}}}, "dtype": {"type": "DT_FLOAT"}}}, {"name": "1598", "op": "Const", "attr": {"value": {"tensor": {"dtype": "DT_FLOAT", "tensorShape": {"dim": [{"size": "13"}]}}}, "dtype": {"type": "DT_FLOAT"}}}, {"name": "PartitionedCall/model_2/tf.concat_10/concat/axis", "op": "Const", "attr": {"value": {"tensor": {"dtype": "DT_INT32", "tensorShape": {}}}, "dtype": {"type": "DT_INT32"}}}, {"name": "PartitionedCall/model_2/tf.compat.v1.transpose/transpose/perm", "op": "Const", "attr": {"dtype": {"type": "DT_INT32"}, "value": {"tensor": {"dtype": "DT_INT32", "tensorShape": {"dim": [{"size": "4"}]}}}}}, {"name": "PartitionedCall/model_2/tf.reshape/Reshape/shape", "op": "Const", "attr": {"value": {"tensor": {"dtype": "DT_INT32", "tensorShape": {"dim": [{"size": "3"}]}}}, "dtype": {"type": "DT_INT32"}}}, {"name": "1534", "op": "Const", "attr": {"value": {"tensor": {"dtype": "DT_FLOAT", "tensorShape": {"dim": [{"size": "3"}, {"size": "3"}, {"size": "384"}, {"size": "64"}]}}}, "dtype": {"type": "DT_FLOAT"}}}, {"name": "1546", "op": "Const", "attr": {"dtype": {"type": "DT_FLOAT"}, "value": {"tensor": {"dtype": "DT_FLOAT", "tensorShape": {"dim": [{"size": "64"}]}}}}}, {"name": "1558", "op": "Const", "attr": {"dtype": {"type": "DT_FLOAT"}, "value": {"tensor": {"dtype": "DT_FLOAT", "tensorShape": {"dim": [{"size": "3"}, {"size": "3"}, {"size": "64"}, {"size": "64"}]}}}}}, {"name": "1570", "op": "Const", "attr": {"dtype": {"type": "DT_FLOAT"}, "value": {"tensor": {"dtype": "DT_FLOAT", "tensorShape": {"dim": [{"size": "64"}]}}}}}, {"name": "1582", "op": "Const", "attr": {"dtype": {"type": "DT_FLOAT"}, "value": {"tensor": {"dtype": "DT_FLOAT", "tensorShape": {"dim": [{"size": "1"}, {"size": "1"}, {"size": "64"}, {"size": "64"}]}}}}}, {"name": "1592", "op": "Const", "attr": {"value": {"tensor": {"dtype": "DT_FLOAT", "tensorShape": {"dim": [{"size": "64"}]}}}, "dtype": {"type": "DT_FLOAT"}}}, {"name": "1532", "op": "Const", "attr": {"value": {"tensor": {"dtype": "DT_FLOAT", "tensorShape": {"dim": [{"size": "3"}, {"size": "3"}, {"size": "384"}, {"size": "192"}]}}}, "dtype": {"type": "DT_FLOAT"}}}, {"name": "1544", "op": "Const", "attr": {"dtype": {"type": "DT_FLOAT"}, "value": {"tensor": {"dtype": "DT_FLOAT", "tensorShape": {"dim": [{"size": "192"}]}}}}}, {"name": "1556", "op": "Const", "attr": {"value": {"tensor": {"dtype": "DT_FLOAT", "tensorShape": {"dim": [{"size": "3"}, {"size": "3"}, {"size": "192"}, {"size": "192"}]}}}, "dtype": {"type": "DT_FLOAT"}}}, {"name": "1568", "op": "Const", "attr": {"value": {"tensor": {"dtype": "DT_FLOAT", "tensorShape": {"dim": [{"size": "192"}]}}}, "dtype": {"type": "DT_FLOAT"}}}, {"name": "1580", "op": "Const", "attr": {"dtype": {"type": "DT_FLOAT"}, "value": {"tensor": {"dtype": "DT_FLOAT", "tensorShape": {"dim": [{"size": "1"}, {"size": "1"}, {"size": "192"}, {"size": "13"}]}}}}}, {"name": "1594", "op": "Const", "attr": {"value": {"tensor": {"dtype": "DT_FLOAT", "tensorShape": {"dim": [{"size": "13"}]}}}, "dtype": {"type": "DT_FLOAT"}}}, {"name": "PartitionedCall/model_2/tf.concat_13/concat/axis", "op": "Const", "attr": {"value": {"tensor": {"dtype": "DT_INT32", "tensorShape": {}}}, "dtype": {"type": "DT_INT32"}}}, {"name": "PartitionedCall/model_2/tf.compat.v1.transpose_1/transpose/perm", "op": "Const", "attr": {"dtype": {"type": "DT_INT32"}, "value": {"tensor": {"dtype": "DT_INT32", "tensorShape": {"dim": [{"size": "4"}]}}}}}, {"name": "PartitionedCall/model_2/tf.reshape_1/Reshape/shape", "op": "Const", "attr": {"dtype": {"type": "DT_INT32"}, "value": {"tensor": {"dtype": "DT_INT32", "tensorShape": {"dim": [{"size": "3"}]}}}}}, {"name": "1530", "op": "Const", "attr": {"dtype": {"type": "DT_FLOAT"}, "value": {"tensor": {"dtype": "DT_FLOAT", "tensorShape": {"dim": [{"size": "3"}, {"size": "3"}, {"size": "576"}, {"size": "64"}]}}}}}, {"name": "1542", "op": "Const", "attr": {"dtype": {"type": "DT_FLOAT"}, "value": {"tensor": {"dtype": "DT_FLOAT", "tensorShape": {"dim": [{"size": "64"}]}}}}}, {"name": "1554", "op": "Const", "attr": {"value": {"tensor": {"dtype": "DT_FLOAT", "tensorShape": {"dim": [{"size": "3"}, {"size": "3"}, {"size": "64"}, {"size": "64"}]}}}, "dtype": {"type": "DT_FLOAT"}}}, {"name": "1566", "op": "Const", "attr": {"dtype": {"type": "DT_FLOAT"}, "value": {"tensor": {"dtype": "DT_FLOAT", "tensorShape": {"dim": [{"size": "64"}]}}}}}, {"name": "1578", "op": "Const", "attr": {"dtype": {"type": "DT_FLOAT"}, "value": {"tensor": {"dtype": "DT_FLOAT", "tensorShape": {"dim": [{"size": "1"}, {"size": "1"}, {"size": "64"}, {"size": "64"}]}}}}}, {"name": "1588", "op": "Const", "attr": {"value": {"tensor": {"dtype": "DT_FLOAT", "tensorShape": {"dim": [{"size": "64"}]}}}, "dtype": {"type": "DT_FLOAT"}}}, {"name": "1520", "op": "Const", "attr": {"dtype": {"type": "DT_INT64"}, "value": {"tensor": {"dtype": "DT_INT64", "tensorShape": {"dim": [{"size": "4"}]}}}}}, {"name": "1522", "op": "Const", "attr": {"dtype": {"type": "DT_INT64"}, "value": {"tensor": {"dtype": "DT_INT64", "tensorShape": {"dim": [{"size": "4"}]}}}}}, {"name": "PartitionedCall/model_2/tf.strided_slice_29/ones_like", "op": "Const", "attr": {"value": {"tensor": {"dtype": "DT_INT64", "tensorShape": {"dim": [{"size": "4"}]}}}, "dtype": {"type": "DT_INT64"}}}, {"name": "1482", "op": "Const", "attr": {"value": {"tensor": {"dtype": "DT_INT64", "tensorShape": {"dim": [{"size": "4"}]}}}, "dtype": {"type": "DT_INT64"}}}, {"name": "1484", "op": "Const", "attr": {"dtype": {"type": "DT_INT64"}, "value": {"tensor": {"dtype": "DT_INT64", "tensorShape": {"dim": [{"size": "4"}]}}}}}, {"name": "PartitionedCall/model_2/tf.strided_slice_25/ones_like", "op": "Const", "attr": {"value": {"tensor": {"dtype": "DT_INT64", "tensorShape": {"dim": [{"size": "4"}]}}}, "dtype": {"type": "DT_INT64"}}}, {"name": "1444", "op": "Const", "attr": {"dtype": {"type": "DT_INT64"}, "value": {"tensor": {"dtype": "DT_INT64", "tensorShape": {"dim": [{"size": "4"}]}}}}}, {"name": "1446", "op": "Const", "attr": {"dtype": {"type": "DT_INT64"}, "value": {"tensor": {"dtype": "DT_INT64", "tensorShape": {"dim": [{"size": "4"}]}}}}}, {"name": "PartitionedCall/model_2/tf.strided_slice_21/ones_like", "op": "Const", "attr": {"dtype": {"type": "DT_INT64"}, "value": {"tensor": {"dtype": "DT_INT64", "tensorShape": {"dim": [{"size": "4"}]}}}}}, {"name": "PartitionedCall/model_2/lambda_1//model.13/Resize/size", "op": "Const", "attr": {"value": {"tensor": {"dtype": "DT_INT32", "tensorShape": {"dim": [{"size": "2"}]}}}, "dtype": {"type": "DT_INT32"}}}, {"name": "PartitionedCall/model_2/tf.concat_7/concat/axis", "op": "Const", "attr": {"dtype": {"type": "DT_INT32"}, "value": {"tensor": {"dtype": "DT_INT32", "tensorShape": {}}}}}, {"name": "1420", "op": "Const", "attr": {"value": {"tensor": {"dtype": "DT_FLOAT", "tensorShape": {"dim": [{"size": "1"}, {"size": "1"}, {"size": "576"}, {"size": "192"}]}}}, "dtype": {"type": "DT_FLOAT"}}}, {"name": "1422", "op": "Const", "attr": {"dtype": {"type": "DT_FLOAT"}, "value": {"tensor": {"dtype": "DT_FLOAT", "tensorShape": {"dim": [{"size": "192"}]}}}}}, {"name": "1424", "op": "Const", "attr": {"dtype": {"type": "DT_INT64"}, "value": {"tensor": {"dtype": "DT_INT64", "tensorShape": {"dim": [{"size": "4"}]}}}}}, {"name": "1426", "op": "Const", "attr": {"dtype": {"type": "DT_INT64"}, "value": {"tensor": {"dtype": "DT_INT64", "tensorShape": {"dim": [{"size": "4"}]}}}}}, {"name": "PartitionedCall/model_2/tf.strided_slice_23/ones_like", "op": "Const", "attr": {"value": {"tensor": {"dtype": "DT_INT64", "tensorShape": {"dim": [{"size": "4"}]}}}, "dtype": {"type": "DT_INT64"}}}, {"name": "1428", "op": "Const", "attr": {"dtype": {"type": "DT_FLOAT"}, "value": {"tensor": {"dtype": "DT_FLOAT", "tensorShape": {"dim": [{"size": "3"}, {"size": "3"}, {"size": "96"}, {"size": "96"}]}}}}}, {"name": "1430", "op": "Const", "attr": {"dtype": {"type": "DT_FLOAT"}, "value": {"tensor": {"dtype": "DT_FLOAT", "tensorShape": {"dim": [{"size": "96"}]}}}}}, {"name": "1432", "op": "Const", "attr": {"value": {"tensor": {"dtype": "DT_FLOAT", "tensorShape": {"dim": [{"size": "3"}, {"size": "3"}, {"size": "96"}, {"size": "96"}]}}}, "dtype": {"type": "DT_FLOAT"}}}, {"name": "1434", "op": "Const", "attr": {"dtype": {"type": "DT_FLOAT"}, "value": {"tensor": {"dtype": "DT_FLOAT", "tensorShape": {"dim": [{"size": "96"}]}}}}}, {"name": "1436", "op": "Const", "attr": {"dtype": {"type": "DT_FLOAT"}, "value": {"tensor": {"dtype": "DT_FLOAT", "tensorShape": {"dim": [{"size": "3"}, {"size": "3"}, {"size": "96"}, {"size": "96"}]}}}}}, {"name": "1438", "op": "Const", "attr": {"value": {"tensor": {"dtype": "DT_FLOAT", "tensorShape": {"dim": [{"size": "96"}]}}}, "dtype": {"type": "DT_FLOAT"}}}, {"name": "1440", "op": "Const", "attr": {"value": {"tensor": {"dtype": "DT_FLOAT", "tensorShape": {"dim": [{"size": "3"}, {"size": "3"}, {"size": "96"}, {"size": "96"}]}}}, "dtype": {"type": "DT_FLOAT"}}}, {"name": "1442", "op": "Const", "attr": {"dtype": {"type": "DT_FLOAT"}, "value": {"tensor": {"dtype": "DT_FLOAT", "tensorShape": {"dim": [{"size": "96"}]}}}}}, {"name": "PartitionedCall/model_2/tf.concat_8/concat/axis", "op": "Const", "attr": {"value": {"tensor": {"dtype": "DT_INT32", "tensorShape": {}}}, "dtype": {"type": "DT_INT32"}}}, {"name": "1448", "op": "Const", "attr": {"dtype": {"type": "DT_FLOAT"}, "value": {"tensor": {"dtype": "DT_FLOAT", "tensorShape": {"dim": [{"size": "1"}, {"size": "1"}, {"size": "384"}, {"size": "192"}]}}}}}, {"name": "1450", "op": "Const", "attr": {"dtype": {"type": "DT_FLOAT"}, "value": {"tensor": {"dtype": "DT_FLOAT", "tensorShape": {"dim": [{"size": "192"}]}}}}}, {"name": "1452", "op": "Const", "attr": {"dtype": {"type": "DT_INT32"}, "value": {"tensor": {"dtype": "DT_INT32", "tensorShape": {"dim": [{"size": "4"}, {"size": "2"}]}}}}}, {"name": "1454", "op": "Const", "attr": {"value": {"tensor": {"dtype": "DT_FLOAT", "tensorShape": {"dim": [{"size": "3"}, {"size": "3"}, {"size": "192"}, {"size": "192"}]}}}, "dtype": {"type": "DT_FLOAT"}}}, {"name": "1456", "op": "Const", "attr": {"value": {"tensor": {"dtype": "DT_FLOAT", "tensorShape": {"dim": [{"size": "192"}]}}}, "dtype": {"type": "DT_FLOAT"}}}, {"name": "1412", "op": "Const", "attr": {"dtype": {"type": "DT_INT64"}, "value": {"tensor": {"dtype": "DT_INT64", "tensorShape": {"dim": [{"size": "4"}]}}}}}, {"name": "1414", "op": "Const", "attr": {"value": {"tensor": {"dtype": "DT_INT64", "tensorShape": {"dim": [{"size": "4"}]}}}, "dtype": {"type": "DT_INT64"}}}, {"name": "PartitionedCall/model_2/tf.strided_slice_17/ones_like", "op": "Const", "attr": {"dtype": {"type": "DT_INT64"}, "value": {"tensor": {"dtype": "DT_INT64", "tensorShape": {"dim": [{"size": "4"}]}}}}}, {"name": "PartitionedCall/model_2/lambda//model.10/Resize/size", "op": "Const", "attr": {"dtype": {"type": "DT_INT32"}, "value": {"tensor": {"dtype": "DT_INT32", "tensorShape": {"dim": [{"size": "2"}]}}}}}, {"name": "PartitionedCall/model_2/tf.concat_5/concat/axis", "op": "Const", "attr": {"dtype": {"type": "DT_INT32"}, "value": {"tensor": {"dtype": "DT_INT32", "tensorShape": {}}}}}, {"name": "1388", "op": "Const", "attr": {"value": {"tensor": {"dtype": "DT_FLOAT", "tensorShape": {"dim": [{"size": "1"}, {"size": "1"}, {"size": "960"}, {"size": "384"}]}}}, "dtype": {"type": "DT_FLOAT"}}}, {"name": "1390", "op": "Const", "attr": {"dtype": {"type": "DT_FLOAT"}, "value": {"tensor": {"dtype": "DT_FLOAT", "tensorShape": {"dim": [{"size": "384"}]}}}}}, {"name": "1392", "op": "Const", "attr": {"dtype": {"type": "DT_INT64"}, "value": {"tensor": {"dtype": "DT_INT64", "tensorShape": {"dim": [{"size": "4"}]}}}}}, {"name": "1394", "op": "Const", "attr": {"dtype": {"type": "DT_INT64"}, "value": {"tensor": {"dtype": "DT_INT64", "tensorShape": {"dim": [{"size": "4"}]}}}}}, {"name": "PartitionedCall/model_2/tf.strided_slice_19/ones_like", "op": "Const", "attr": {"value": {"tensor": {"dtype": "DT_INT64", "tensorShape": {"dim": [{"size": "4"}]}}}, "dtype": {"type": "DT_INT64"}}}, {"name": "1396", "op": "Const", "attr": {"dtype": {"type": "DT_FLOAT"}, "value": {"tensor": {"dtype": "DT_FLOAT", "tensorShape": {"dim": [{"size": "3"}, {"size": "3"}, {"size": "192"}, {"size": "192"}]}}}}}, {"name": "1398", "op": "Const", "attr": {"value": {"tensor": {"dtype": "DT_FLOAT", "tensorShape": {"dim": [{"size": "192"}]}}}, "dtype": {"type": "DT_FLOAT"}}}, {"name": "1400", "op": "Const", "attr": {"dtype": {"type": "DT_FLOAT"}, "value": {"tensor": {"dtype": "DT_FLOAT", "tensorShape": {"dim": [{"size": "3"}, {"size": "3"}, {"size": "192"}, {"size": "192"}]}}}}}, {"name": "1402", "op": "Const", "attr": {"value": {"tensor": {"dtype": "DT_FLOAT", "tensorShape": {"dim": [{"size": "192"}]}}}, "dtype": {"type": "DT_FLOAT"}}}, {"name": "1404", "op": "Const", "attr": {"value": {"tensor": {"dtype": "DT_FLOAT", "tensorShape": {"dim": [{"size": "3"}, {"size": "3"}, {"size": "192"}, {"size": "192"}]}}}, "dtype": {"type": "DT_FLOAT"}}}, {"name": "1406", "op": "Const", "attr": {"dtype": {"type": "DT_FLOAT"}, "value": {"tensor": {"dtype": "DT_FLOAT", "tensorShape": {"dim": [{"size": "192"}]}}}}}, {"name": "1408", "op": "Const", "attr": {"dtype": {"type": "DT_FLOAT"}, "value": {"tensor": {"dtype": "DT_FLOAT", "tensorShape": {"dim": [{"size": "3"}, {"size": "3"}, {"size": "192"}, {"size": "192"}]}}}}}, {"name": "1410", "op": "Const", "attr": {"value": {"tensor": {"dtype": "DT_FLOAT", "tensorShape": {"dim": [{"size": "192"}]}}}, "dtype": {"type": "DT_FLOAT"}}}, {"name": "PartitionedCall/model_2/tf.concat_6/concat/axis", "op": "Const", "attr": {"value": {"tensor": {"dtype": "DT_INT32", "tensorShape": {}}}, "dtype": {"type": "DT_INT32"}}}, {"name": "1416", "op": "Const", "attr": {"value": {"tensor": {"dtype": "DT_FLOAT", "tensorShape": {"dim": [{"size": "1"}, {"size": "1"}, {"size": "768"}, {"size": "384"}]}}}, "dtype": {"type": "DT_FLOAT"}}}, {"name": "1418", "op": "Const", "attr": {"value": {"tensor": {"dtype": "DT_FLOAT", "tensorShape": {"dim": [{"size": "384"}]}}}, "dtype": {"type": "DT_FLOAT"}}}, {"name": "PartitionedCall/model_2/tf.concat_9/concat/axis", "op": "Const", "attr": {"value": {"tensor": {"dtype": "DT_INT32", "tensorShape": {}}}, "dtype": {"type": "DT_INT32"}}}, {"name": "1458", "op": "Const", "attr": {"dtype": {"type": "DT_FLOAT"}, "value": {"tensor": {"dtype": "DT_FLOAT", "tensorShape": {"dim": [{"size": "1"}, {"size": "1"}, {"size": "576"}, {"size": "384"}]}}}}}, {"name": "1460", "op": "Const", "attr": {"value": {"tensor": {"dtype": "DT_FLOAT", "tensorShape": {"dim": [{"size": "384"}]}}}, "dtype": {"type": "DT_FLOAT"}}}, {"name": "1462", "op": "Const", "attr": {"value": {"tensor": {"dtype": "DT_INT64", "tensorShape": {"dim": [{"size": "4"}]}}}, "dtype": {"type": "DT_INT64"}}}, {"name": "1464", "op": "Const", "attr": {"value": {"tensor": {"dtype": "DT_INT64", "tensorShape": {"dim": [{"size": "4"}]}}}, "dtype": {"type": "DT_INT64"}}}, {"name": "PartitionedCall/model_2/tf.strided_slice_27/ones_like", "op": "Const", "attr": {"value": {"tensor": {"dtype": "DT_INT64", "tensorShape": {"dim": [{"size": "4"}]}}}, "dtype": {"type": "DT_INT64"}}}, {"name": "1466", "op": "Const", "attr": {"value": {"tensor": {"dtype": "DT_FLOAT", "tensorShape": {"dim": [{"size": "3"}, {"size": "3"}, {"size": "192"}, {"size": "192"}]}}}, "dtype": {"type": "DT_FLOAT"}}}, {"name": "1468", "op": "Const", "attr": {"dtype": {"type": "DT_FLOAT"}, "value": {"tensor": {"dtype": "DT_FLOAT", "tensorShape": {"dim": [{"size": "192"}]}}}}}, {"name": "1470", "op": "Const", "attr": {"dtype": {"type": "DT_FLOAT"}, "value": {"tensor": {"dtype": "DT_FLOAT", "tensorShape": {"dim": [{"size": "3"}, {"size": "3"}, {"size": "192"}, {"size": "192"}]}}}}}, {"name": "1472", "op": "Const", "attr": {"dtype": {"type": "DT_FLOAT"}, "value": {"tensor": {"dtype": "DT_FLOAT", "tensorShape": {"dim": [{"size": "192"}]}}}}}, {"name": "1474", "op": "Const", "attr": {"value": {"tensor": {"dtype": "DT_FLOAT", "tensorShape": {"dim": [{"size": "3"}, {"size": "3"}, {"size": "192"}, {"size": "192"}]}}}, "dtype": {"type": "DT_FLOAT"}}}, {"name": "1476", "op": "Const", "attr": {"value": {"tensor": {"dtype": "DT_FLOAT", "tensorShape": {"dim": [{"size": "192"}]}}}, "dtype": {"type": "DT_FLOAT"}}}, {"name": "1478", "op": "Const", "attr": {"dtype": {"type": "DT_FLOAT"}, "value": {"tensor": {"dtype": "DT_FLOAT", "tensorShape": {"dim": [{"size": "3"}, {"size": "3"}, {"size": "192"}, {"size": "192"}]}}}}}, {"name": "1480", "op": "Const", "attr": {"value": {"tensor": {"dtype": "DT_FLOAT", "tensorShape": {"dim": [{"size": "192"}]}}}, "dtype": {"type": "DT_FLOAT"}}}, {"name": "PartitionedCall/model_2/tf.concat_11/concat/axis", "op": "Const", "attr": {"value": {"tensor": {"dtype": "DT_INT32", "tensorShape": {}}}, "dtype": {"type": "DT_INT32"}}}, {"name": "1486", "op": "Const", "attr": {"dtype": {"type": "DT_FLOAT"}, "value": {"tensor": {"dtype": "DT_FLOAT", "tensorShape": {"dim": [{"size": "1"}, {"size": "1"}, {"size": "768"}, {"size": "384"}]}}}}}, {"name": "1488", "op": "Const", "attr": {"value": {"tensor": {"dtype": "DT_FLOAT", "tensorShape": {"dim": [{"size": "384"}]}}}, "dtype": {"type": "DT_FLOAT"}}}, {"name": "1490", "op": "Const", "attr": {"value": {"tensor": {"dtype": "DT_INT32", "tensorShape": {"dim": [{"size": "4"}, {"size": "2"}]}}}, "dtype": {"type": "DT_INT32"}}}, {"name": "1492", "op": "Const", "attr": {"dtype": {"type": "DT_FLOAT"}, "value": {"tensor": {"dtype": "DT_FLOAT", "tensorShape": {"dim": [{"size": "3"}, {"size": "3"}, {"size": "384"}, {"size": "384"}]}}}}}, {"name": "1494", "op": "Const", "attr": {"value": {"tensor": {"dtype": "DT_FLOAT", "tensorShape": {"dim": [{"size": "384"}]}}}, "dtype": {"type": "DT_FLOAT"}}}, {"name": "1372", "op": "Const", "attr": {"dtype": {"type": "DT_INT64"}, "value": {"tensor": {"dtype": "DT_INT64", "tensorShape": {"dim": [{"size": "4"}]}}}}}, {"name": "1374", "op": "Const", "attr": {"value": {"tensor": {"dtype": "DT_INT64", "tensorShape": {"dim": [{"size": "4"}]}}}, "dtype": {"type": "DT_INT64"}}}, {"name": "PartitionedCall/model_2/tf.strided_slice_13/ones_like", "op": "Const", "attr": {"dtype": {"type": "DT_INT64"}, "value": {"tensor": {"dtype": "DT_INT64", "tensorShape": {"dim": [{"size": "4"}]}}}}}, {"name": "1334", "op": "Const", "attr": {"dtype": {"type": "DT_INT64"}, "value": {"tensor": {"dtype": "DT_INT64", "tensorShape": {"dim": [{"size": "4"}]}}}}}, {"name": "1336", "op": "Const", "attr": {"dtype": {"type": "DT_INT64"}, "value": {"tensor": {"dtype": "DT_INT64", "tensorShape": {"dim": [{"size": "4"}]}}}}}, {"name": "PartitionedCall/model_2/tf.strided_slice_9/ones_like", "op": "Const", "attr": {"value": {"tensor": {"dtype": "DT_INT64", "tensorShape": {"dim": [{"size": "4"}]}}}, "dtype": {"type": "DT_INT64"}}}, {"name": "1280", "op": "Const", "attr": {"value": {"tensor": {"dtype": "DT_INT64", "tensorShape": {"dim": [{"size": "4"}]}}}, "dtype": {"type": "DT_INT64"}}}, {"name": "1282", "op": "Const", "attr": {"dtype": {"type": "DT_INT64"}, "value": {"tensor": {"dtype": "DT_INT64", "tensorShape": {"dim": [{"size": "4"}]}}}}}, {"name": "PartitionedCall/model_2/tf.strided_slice_5/ones_like", "op": "Const", "attr": {"dtype": {"type": "DT_INT64"}, "value": {"tensor": {"dtype": "DT_INT64", "tensorShape": {"dim": [{"size": "4"}]}}}}}, {"name": "1226", "op": "Const", "attr": {"value": {"tensor": {"dtype": "DT_INT64", "tensorShape": {"dim": [{"size": "4"}]}}}, "dtype": {"type": "DT_INT64"}}}, {"name": "1228", "op": "Const", "attr": {"value": {"tensor": {"dtype": "DT_INT64", "tensorShape": {"dim": [{"size": "4"}]}}}, "dtype": {"type": "DT_INT64"}}}, {"name": "PartitionedCall/model_2/tf.strided_slice_1/ones_like", "op": "Const", "attr": {"value": {"tensor": {"dtype": "DT_INT64", "tensorShape": {"dim": [{"size": "4"}]}}}, "dtype": {"type": "DT_INT64"}}}, {"name": "1190", "op": "Const", "attr": {"value": {"tensor": {"dtype": "DT_INT32", "tensorShape": {"dim": [{"size": "4"}, {"size": "2"}]}}}, "dtype": {"type": "DT_INT32"}}}, {"name": "1192", "op": "Const", "attr": {"value": {"tensor": {"dtype": "DT_FLOAT", "tensorShape": {"dim": [{"size": "3"}, {"size": "3"}, {"size": "3"}, {"size": "48"}]}}}, "dtype": {"type": "DT_FLOAT"}}}, {"name": "1194", "op": "Const", "attr": {"dtype": {"type": "DT_FLOAT"}, "value": {"tensor": {"dtype": "DT_FLOAT", "tensorShape": {"dim": [{"size": "48"}]}}}}}, {"name": "1196", "op": "Const", "attr": {"value": {"tensor": {"dtype": "DT_INT32", "tensorShape": {"dim": [{"size": "4"}, {"size": "2"}]}}}, "dtype": {"type": "DT_INT32"}}}, {"name": "1198", "op": "Const", "attr": {"dtype": {"type": "DT_FLOAT"}, "value": {"tensor": {"dtype": "DT_FLOAT", "tensorShape": {"dim": [{"size": "3"}, {"size": "3"}, {"size": "48"}, {"size": "96"}]}}}}}, {"name": "1200", "op": "Const", "attr": {"value": {"tensor": {"dtype": "DT_FLOAT", "tensorShape": {"dim": [{"size": "96"}]}}}, "dtype": {"type": "DT_FLOAT"}}}, {"name": "1202", "op": "Const", "attr": {"dtype": {"type": "DT_FLOAT"}, "value": {"tensor": {"dtype": "DT_FLOAT", "tensorShape": {"dim": [{"size": "1"}, {"size": "1"}, {"size": "96"}, {"size": "96"}]}}}}}, {"name": "1204", "op": "Const", "attr": {"dtype": {"type": "DT_FLOAT"}, "value": {"tensor": {"dtype": "DT_FLOAT", "tensorShape": {"dim": [{"size": "96"}]}}}}}, {"name": "1206", "op": "Const", "attr": {"value": {"tensor": {"dtype": "DT_INT64", "tensorShape": {"dim": [{"size": "4"}]}}}, "dtype": {"type": "DT_INT64"}}}, {"name": "1208", "op": "Const", "attr": {"dtype": {"type": "DT_INT64"}, "value": {"tensor": {"dtype": "DT_INT64", "tensorShape": {"dim": [{"size": "4"}]}}}}}, {"name": "PartitionedCall/model_2/tf.strided_slice_3/ones_like", "op": "Const", "attr": {"dtype": {"type": "DT_INT64"}, "value": {"tensor": {"dtype": "DT_INT64", "tensorShape": {"dim": [{"size": "4"}]}}}}}, {"name": "1210", "op": "Const", "attr": {"value": {"tensor": {"dtype": "DT_FLOAT", "tensorShape": {"dim": [{"size": "3"}, {"size": "3"}, {"size": "48"}, {"size": "48"}]}}}, "dtype": {"type": "DT_FLOAT"}}}, {"name": "1212", "op": "Const", "attr": {"value": {"tensor": {"dtype": "DT_FLOAT", "tensorShape": {"dim": [{"size": "48"}]}}}, "dtype": {"type": "DT_FLOAT"}}}, {"name": "1214", "op": "Const", "attr": {"value": {"tensor": {"dtype": "DT_FLOAT", "tensorShape": {"dim": [{"size": "3"}, {"size": "3"}, {"size": "48"}, {"size": "48"}]}}}, "dtype": {"type": "DT_FLOAT"}}}, {"name": "1216", "op": "Const", "attr": {"dtype": {"type": "DT_FLOAT"}, "value": {"tensor": {"dtype": "DT_FLOAT", "tensorShape": {"dim": [{"size": "48"}]}}}}}, {"name": "1218", "op": "Const", "attr": {"dtype": {"type": "DT_FLOAT"}, "value": {"tensor": {"dtype": "DT_FLOAT", "tensorShape": {"dim": [{"size": "3"}, {"size": "3"}, {"size": "48"}, {"size": "48"}]}}}}}, {"name": "1220", "op": "Const", "attr": {"dtype": {"type": "DT_FLOAT"}, "value": {"tensor": {"dtype": "DT_FLOAT", "tensorShape": {"dim": [{"size": "48"}]}}}}}, {"name": "1222", "op": "Const", "attr": {"dtype": {"type": "DT_FLOAT"}, "value": {"tensor": {"dtype": "DT_FLOAT", "tensorShape": {"dim": [{"size": "3"}, {"size": "3"}, {"size": "48"}, {"size": "48"}]}}}}}, {"name": "1224", "op": "Const", "attr": {"dtype": {"type": "DT_FLOAT"}, "value": {"tensor": {"dtype": "DT_FLOAT", "tensorShape": {"dim": [{"size": "48"}]}}}}}, {"name": "PartitionedCall/model_2/tf.concat/concat/axis", "op": "Const", "attr": {"value": {"tensor": {"dtype": "DT_INT32", "tensorShape": {}}}, "dtype": {"type": "DT_INT32"}}}, {"name": "1230", "op": "Const", "attr": {"dtype": {"type": "DT_FLOAT"}, "value": {"tensor": {"dtype": "DT_FLOAT", "tensorShape": {"dim": [{"size": "1"}, {"size": "1"}, {"size": "192"}, {"size": "96"}]}}}}}, {"name": "1232", "op": "Const", "attr": {"value": {"tensor": {"dtype": "DT_FLOAT", "tensorShape": {"dim": [{"size": "96"}]}}}, "dtype": {"type": "DT_FLOAT"}}}, {"name": "1234", "op": "Const", "attr": {"value": {"tensor": {"dtype": "DT_INT32", "tensorShape": {"dim": [{"size": "4"}, {"size": "2"}]}}}, "dtype": {"type": "DT_INT32"}}}, {"name": "1236", "op": "Const", "attr": {"value": {"tensor": {"dtype": "DT_FLOAT", "tensorShape": {"dim": [{"size": "3"}, {"size": "3"}, {"size": "96"}, {"size": "192"}]}}}, "dtype": {"type": "DT_FLOAT"}}}, {"name": "1238", "op": "Const", "attr": {"dtype": {"type": "DT_FLOAT"}, "value": {"tensor": {"dtype": "DT_FLOAT", "tensorShape": {"dim": [{"size": "192"}]}}}}}, {"name": "1240", "op": "Const", "attr": {"value": {"tensor": {"dtype": "DT_FLOAT", "tensorShape": {"dim": [{"size": "1"}, {"size": "1"}, {"size": "192"}, {"size": "192"}]}}}, "dtype": {"type": "DT_FLOAT"}}}, {"name": "1242", "op": "Const", "attr": {"dtype": {"type": "DT_FLOAT"}, "value": {"tensor": {"dtype": "DT_FLOAT", "tensorShape": {"dim": [{"size": "192"}]}}}}}, {"name": "1244", "op": "Const", "attr": {"value": {"tensor": {"dtype": "DT_INT64", "tensorShape": {"dim": [{"size": "4"}]}}}, "dtype": {"type": "DT_INT64"}}}, {"name": "1246", "op": "Const", "attr": {"dtype": {"type": "DT_INT64"}, "value": {"tensor": {"dtype": "DT_INT64", "tensorShape": {"dim": [{"size": "4"}]}}}}}, {"name": "PartitionedCall/model_2/tf.strided_slice_7/ones_like", "op": "Const", "attr": {"dtype": {"type": "DT_INT64"}, "value": {"tensor": {"dtype": "DT_INT64", "tensorShape": {"dim": [{"size": "4"}]}}}}}, {"name": "1248", "op": "Const", "attr": {"value": {"tensor": {"dtype": "DT_FLOAT", "tensorShape": {"dim": [{"size": "3"}, {"size": "3"}, {"size": "96"}, {"size": "96"}]}}}, "dtype": {"type": "DT_FLOAT"}}}, {"name": "1250", "op": "Const", "attr": {"dtype": {"type": "DT_FLOAT"}, "value": {"tensor": {"dtype": "DT_FLOAT", "tensorShape": {"dim": [{"size": "96"}]}}}}}, {"name": "1252", "op": "Const", "attr": {"value": {"tensor": {"dtype": "DT_FLOAT", "tensorShape": {"dim": [{"size": "3"}, {"size": "3"}, {"size": "96"}, {"size": "96"}]}}}, "dtype": {"type": "DT_FLOAT"}}}, {"name": "1254", "op": "Const", "attr": {"dtype": {"type": "DT_FLOAT"}, "value": {"tensor": {"dtype": "DT_FLOAT", "tensorShape": {"dim": [{"size": "96"}]}}}}}, {"name": "1256", "op": "Const", "attr": {"dtype": {"type": "DT_FLOAT"}, "value": {"tensor": {"dtype": "DT_FLOAT", "tensorShape": {"dim": [{"size": "3"}, {"size": "3"}, {"size": "96"}, {"size": "96"}]}}}}}, {"name": "1258", "op": "Const", "attr": {"dtype": {"type": "DT_FLOAT"}, "value": {"tensor": {"dtype": "DT_FLOAT", "tensorShape": {"dim": [{"size": "96"}]}}}}}, {"name": "1260", "op": "Const", "attr": {"value": {"tensor": {"dtype": "DT_FLOAT", "tensorShape": {"dim": [{"size": "3"}, {"size": "3"}, {"size": "96"}, {"size": "96"}]}}}, "dtype": {"type": "DT_FLOAT"}}}, {"name": "1262", "op": "Const", "attr": {"value": {"tensor": {"dtype": "DT_FLOAT", "tensorShape": {"dim": [{"size": "96"}]}}}, "dtype": {"type": "DT_FLOAT"}}}, {"name": "1264", "op": "Const", "attr": {"dtype": {"type": "DT_FLOAT"}, "value": {"tensor": {"dtype": "DT_FLOAT", "tensorShape": {"dim": [{"size": "3"}, {"size": "3"}, {"size": "96"}, {"size": "96"}]}}}}}, {"name": "1266", "op": "Const", "attr": {"dtype": {"type": "DT_FLOAT"}, "value": {"tensor": {"dtype": "DT_FLOAT", "tensorShape": {"dim": [{"size": "96"}]}}}}}, {"name": "1268", "op": "Const", "attr": {"dtype": {"type": "DT_FLOAT"}, "value": {"tensor": {"dtype": "DT_FLOAT", "tensorShape": {"dim": [{"size": "3"}, {"size": "3"}, {"size": "96"}, {"size": "96"}]}}}}}, {"name": "1270", "op": "Const", "attr": {"value": {"tensor": {"dtype": "DT_FLOAT", "tensorShape": {"dim": [{"size": "96"}]}}}, "dtype": {"type": "DT_FLOAT"}}}, {"name": "1272", "op": "Const", "attr": {"dtype": {"type": "DT_FLOAT"}, "value": {"tensor": {"dtype": "DT_FLOAT", "tensorShape": {"dim": [{"size": "3"}, {"size": "3"}, {"size": "96"}, {"size": "96"}]}}}}}, {"name": "1274", "op": "Const", "attr": {"dtype": {"type": "DT_FLOAT"}, "value": {"tensor": {"dtype": "DT_FLOAT", "tensorShape": {"dim": [{"size": "96"}]}}}}}, {"name": "1276", "op": "Const", "attr": {"value": {"tensor": {"dtype": "DT_FLOAT", "tensorShape": {"dim": [{"size": "3"}, {"size": "3"}, {"size": "96"}, {"size": "96"}]}}}, "dtype": {"type": "DT_FLOAT"}}}, {"name": "1278", "op": "Const", "attr": {"dtype": {"type": "DT_FLOAT"}, "value": {"tensor": {"dtype": "DT_FLOAT", "tensorShape": {"dim": [{"size": "96"}]}}}}}, {"name": "PartitionedCall/model_2/tf.concat_1/concat/axis", "op": "Const", "attr": {"value": {"tensor": {"dtype": "DT_INT32", "tensorShape": {}}}, "dtype": {"type": "DT_INT32"}}}, {"name": "1284", "op": "Const", "attr": {"value": {"tensor": {"dtype": "DT_FLOAT", "tensorShape": {"dim": [{"size": "1"}, {"size": "1"}, {"size": "576"}, {"size": "192"}]}}}, "dtype": {"type": "DT_FLOAT"}}}, {"name": "1286", "op": "Const", "attr": {"dtype": {"type": "DT_FLOAT"}, "value": {"tensor": {"dtype": "DT_FLOAT", "tensorShape": {"dim": [{"size": "192"}]}}}}}, {"name": "1288", "op": "Const", "attr": {"dtype": {"type": "DT_INT32"}, "value": {"tensor": {"dtype": "DT_INT32", "tensorShape": {"dim": [{"size": "4"}, {"size": "2"}]}}}}}, {"name": "1290", "op": "Const", "attr": {"dtype": {"type": "DT_FLOAT"}, "value": {"tensor": {"dtype": "DT_FLOAT", "tensorShape": {"dim": [{"size": "3"}, {"size": "3"}, {"size": "192"}, {"size": "384"}]}}}}}, {"name": "1292", "op": "Const", "attr": {"dtype": {"type": "DT_FLOAT"}, "value": {"tensor": {"dtype": "DT_FLOAT", "tensorShape": {"dim": [{"size": "384"}]}}}}}, {"name": "1294", "op": "Const", "attr": {"value": {"tensor": {"dtype": "DT_FLOAT", "tensorShape": {"dim": [{"size": "1"}, {"size": "1"}, {"size": "384"}, {"size": "384"}]}}}, "dtype": {"type": "DT_FLOAT"}}}, {"name": "1296", "op": "Const", "attr": {"dtype": {"type": "DT_FLOAT"}, "value": {"tensor": {"dtype": "DT_FLOAT", "tensorShape": {"dim": [{"size": "384"}]}}}}}, {"name": "1298", "op": "Const", "attr": {"value": {"tensor": {"dtype": "DT_INT64", "tensorShape": {"dim": [{"size": "4"}]}}}, "dtype": {"type": "DT_INT64"}}}, {"name": "1300", "op": "Const", "attr": {"value": {"tensor": {"dtype": "DT_INT64", "tensorShape": {"dim": [{"size": "4"}]}}}, "dtype": {"type": "DT_INT64"}}}, {"name": "PartitionedCall/model_2/tf.strided_slice_11/ones_like", "op": "Const", "attr": {"value": {"tensor": {"dtype": "DT_INT64", "tensorShape": {"dim": [{"size": "4"}]}}}, "dtype": {"type": "DT_INT64"}}}, {"name": "1302", "op": "Const", "attr": {"value": {"tensor": {"dtype": "DT_FLOAT", "tensorShape": {"dim": [{"size": "3"}, {"size": "3"}, {"size": "192"}, {"size": "192"}]}}}, "dtype": {"type": "DT_FLOAT"}}}, {"name": "1304", "op": "Const", "attr": {"dtype": {"type": "DT_FLOAT"}, "value": {"tensor": {"dtype": "DT_FLOAT", "tensorShape": {"dim": [{"size": "192"}]}}}}}, {"name": "1306", "op": "Const", "attr": {"value": {"tensor": {"dtype": "DT_FLOAT", "tensorShape": {"dim": [{"size": "3"}, {"size": "3"}, {"size": "192"}, {"size": "192"}]}}}, "dtype": {"type": "DT_FLOAT"}}}, {"name": "1308", "op": "Const", "attr": {"dtype": {"type": "DT_FLOAT"}, "value": {"tensor": {"dtype": "DT_FLOAT", "tensorShape": {"dim": [{"size": "192"}]}}}}}, {"name": "1310", "op": "Const", "attr": {"value": {"tensor": {"dtype": "DT_FLOAT", "tensorShape": {"dim": [{"size": "3"}, {"size": "3"}, {"size": "192"}, {"size": "192"}]}}}, "dtype": {"type": "DT_FLOAT"}}}, {"name": "1312", "op": "Const", "attr": {"value": {"tensor": {"dtype": "DT_FLOAT", "tensorShape": {"dim": [{"size": "192"}]}}}, "dtype": {"type": "DT_FLOAT"}}}, {"name": "1314", "op": "Const", "attr": {"dtype": {"type": "DT_FLOAT"}, "value": {"tensor": {"dtype": "DT_FLOAT", "tensorShape": {"dim": [{"size": "3"}, {"size": "3"}, {"size": "192"}, {"size": "192"}]}}}}}, {"name": "1316", "op": "Const", "attr": {"dtype": {"type": "DT_FLOAT"}, "value": {"tensor": {"dtype": "DT_FLOAT", "tensorShape": {"dim": [{"size": "192"}]}}}}}, {"name": "1318", "op": "Const", "attr": {"value": {"tensor": {"dtype": "DT_FLOAT", "tensorShape": {"dim": [{"size": "3"}, {"size": "3"}, {"size": "192"}, {"size": "192"}]}}}, "dtype": {"type": "DT_FLOAT"}}}, {"name": "1320", "op": "Const", "attr": {"dtype": {"type": "DT_FLOAT"}, "value": {"tensor": {"dtype": "DT_FLOAT", "tensorShape": {"dim": [{"size": "192"}]}}}}}, {"name": "1322", "op": "Const", "attr": {"value": {"tensor": {"dtype": "DT_FLOAT", "tensorShape": {"dim": [{"size": "3"}, {"size": "3"}, {"size": "192"}, {"size": "192"}]}}}, "dtype": {"type": "DT_FLOAT"}}}, {"name": "1324", "op": "Const", "attr": {"dtype": {"type": "DT_FLOAT"}, "value": {"tensor": {"dtype": "DT_FLOAT", "tensorShape": {"dim": [{"size": "192"}]}}}}}, {"name": "1326", "op": "Const", "attr": {"value": {"tensor": {"dtype": "DT_FLOAT", "tensorShape": {"dim": [{"size": "3"}, {"size": "3"}, {"size": "192"}, {"size": "192"}]}}}, "dtype": {"type": "DT_FLOAT"}}}, {"name": "1328", "op": "Const", "attr": {"dtype": {"type": "DT_FLOAT"}, "value": {"tensor": {"dtype": "DT_FLOAT", "tensorShape": {"dim": [{"size": "192"}]}}}}}, {"name": "1330", "op": "Const", "attr": {"dtype": {"type": "DT_FLOAT"}, "value": {"tensor": {"dtype": "DT_FLOAT", "tensorShape": {"dim": [{"size": "3"}, {"size": "3"}, {"size": "192"}, {"size": "192"}]}}}}}, {"name": "1332", "op": "Const", "attr": {"dtype": {"type": "DT_FLOAT"}, "value": {"tensor": {"dtype": "DT_FLOAT", "tensorShape": {"dim": [{"size": "192"}]}}}}}, {"name": "PartitionedCall/model_2/tf.concat_2/concat/axis", "op": "Const", "attr": {"dtype": {"type": "DT_INT32"}, "value": {"tensor": {"dtype": "DT_INT32", "tensorShape": {}}}}}, {"name": "1338", "op": "Const", "attr": {"value": {"tensor": {"dtype": "DT_FLOAT", "tensorShape": {"dim": [{"size": "1"}, {"size": "1"}, {"size": "1152"}, {"size": "384"}]}}}, "dtype": {"type": "DT_FLOAT"}}}, {"name": "1340", "op": "Const", "attr": {"value": {"tensor": {"dtype": "DT_FLOAT", "tensorShape": {"dim": [{"size": "384"}]}}}, "dtype": {"type": "DT_FLOAT"}}}, {"name": "1342", "op": "Const", "attr": {"dtype": {"type": "DT_INT32"}, "value": {"tensor": {"dtype": "DT_INT32", "tensorShape": {"dim": [{"size": "4"}, {"size": "2"}]}}}}}, {"name": "1344", "op": "Const", "attr": {"dtype": {"type": "DT_FLOAT"}, "value": {"tensor": {"dtype": "DT_FLOAT", "tensorShape": {"dim": [{"size": "3"}, {"size": "3"}, {"size": "384"}, {"size": "576"}]}}}}}, {"name": "1346", "op": "Const", "attr": {"value": {"tensor": {"dtype": "DT_FLOAT", "tensorShape": {"dim": [{"size": "576"}]}}}, "dtype": {"type": "DT_FLOAT"}}}, {"name": "1348", "op": "Const", "attr": {"dtype": {"type": "DT_FLOAT"}, "value": {"tensor": {"dtype": "DT_FLOAT", "tensorShape": {"dim": [{"size": "1"}, {"size": "1"}, {"size": "576"}, {"size": "576"}]}}}}}, {"name": "1350", "op": "Const", "attr": {"value": {"tensor": {"dtype": "DT_FLOAT", "tensorShape": {"dim": [{"size": "576"}]}}}, "dtype": {"type": "DT_FLOAT"}}}, {"name": "1352", "op": "Const", "attr": {"value": {"tensor": {"dtype": "DT_INT64", "tensorShape": {"dim": [{"size": "4"}]}}}, "dtype": {"type": "DT_INT64"}}}, {"name": "1354", "op": "Const", "attr": {"dtype": {"type": "DT_INT64"}, "value": {"tensor": {"dtype": "DT_INT64", "tensorShape": {"dim": [{"size": "4"}]}}}}}, {"name": "PartitionedCall/model_2/tf.strided_slice_15/ones_like", "op": "Const", "attr": {"value": {"tensor": {"dtype": "DT_INT64", "tensorShape": {"dim": [{"size": "4"}]}}}, "dtype": {"type": "DT_INT64"}}}, {"name": "1356", "op": "Const", "attr": {"dtype": {"type": "DT_FLOAT"}, "value": {"tensor": {"dtype": "DT_FLOAT", "tensorShape": {"dim": [{"size": "3"}, {"size": "3"}, {"size": "288"}, {"size": "288"}]}}}}}, {"name": "1358", "op": "Const", "attr": {"value": {"tensor": {"dtype": "DT_FLOAT", "tensorShape": {"dim": [{"size": "288"}]}}}, "dtype": {"type": "DT_FLOAT"}}}, {"name": "1360", "op": "Const", "attr": {"value": {"tensor": {"dtype": "DT_FLOAT", "tensorShape": {"dim": [{"size": "3"}, {"size": "3"}, {"size": "288"}, {"size": "288"}]}}}, "dtype": {"type": "DT_FLOAT"}}}, {"name": "1362", "op": "Const", "attr": {"dtype": {"type": "DT_FLOAT"}, "value": {"tensor": {"dtype": "DT_FLOAT", "tensorShape": {"dim": [{"size": "288"}]}}}}}, {"name": "1364", "op": "Const", "attr": {"value": {"tensor": {"dtype": "DT_FLOAT", "tensorShape": {"dim": [{"size": "3"}, {"size": "3"}, {"size": "288"}, {"size": "288"}]}}}, "dtype": {"type": "DT_FLOAT"}}}, {"name": "1366", "op": "Const", "attr": {"dtype": {"type": "DT_FLOAT"}, "value": {"tensor": {"dtype": "DT_FLOAT", "tensorShape": {"dim": [{"size": "288"}]}}}}}, {"name": "1368", "op": "Const", "attr": {"dtype": {"type": "DT_FLOAT"}, "value": {"tensor": {"dtype": "DT_FLOAT", "tensorShape": {"dim": [{"size": "3"}, {"size": "3"}, {"size": "288"}, {"size": "288"}]}}}}}, {"name": "1370", "op": "Const", "attr": {"value": {"tensor": {"dtype": "DT_FLOAT", "tensorShape": {"dim": [{"size": "288"}]}}}, "dtype": {"type": "DT_FLOAT"}}}, {"name": "PartitionedCall/model_2/tf.concat_3/concat/axis", "op": "Const", "attr": {"value": {"tensor": {"dtype": "DT_INT32", "tensorShape": {}}}, "dtype": {"type": "DT_INT32"}}}, {"name": "1376", "op": "Const", "attr": {"value": {"tensor": {"dtype": "DT_FLOAT", "tensorShape": {"dim": [{"size": "1"}, {"size": "1"}, {"size": "1152"}, {"size": "576"}]}}}, "dtype": {"type": "DT_FLOAT"}}}, {"name": "1378", "op": "Const", "attr": {"dtype": {"type": "DT_FLOAT"}, "value": {"tensor": {"dtype": "DT_FLOAT", "tensorShape": {"dim": [{"size": "576"}]}}}}}, {"name": "1380", "op": "Const", "attr": {"value": {"tensor": {"dtype": "DT_FLOAT", "tensorShape": {"dim": [{"size": "1"}, {"size": "1"}, {"size": "576"}, {"size": "288"}]}}}, "dtype": {"type": "DT_FLOAT"}}}, {"name": "1382", "op": "Const", "attr": {"value": {"tensor": {"dtype": "DT_FLOAT", "tensorShape": {"dim": [{"size": "288"}]}}}, "dtype": {"type": "DT_FLOAT"}}}, {"name": "PartitionedCall/model_2/tf.concat_4/concat/axis", "op": "Const", "attr": {"dtype": {"type": "DT_INT32"}, "value": {"tensor": {"dtype": "DT_INT32", "tensorShape": {}}}}}, {"name": "1384", "op": "Const", "attr": {"value": {"tensor": {"dtype": "DT_FLOAT", "tensorShape": {"dim": [{"size": "1"}, {"size": "1"}, {"size": "1152"}, {"size": "576"}]}}}, "dtype": {"type": "DT_FLOAT"}}}, {"name": "1386", "op": "Const", "attr": {"dtype": {"type": "DT_FLOAT"}, "value": {"tensor": {"dtype": "DT_FLOAT", "tensorShape": {"dim": [{"size": "576"}]}}}}}, {"name": "PartitionedCall/model_2/tf.concat_12/concat/axis", "op": "Const", "attr": {"dtype": {"type": "DT_INT32"}, "value": {"tensor": {"dtype": "DT_INT32", "tensorShape": {}}}}}, {"name": "1496", "op": "Const", "attr": {"value": {"tensor": {"dtype": "DT_FLOAT", "tensorShape": {"dim": [{"size": "1"}, {"size": "1"}, {"size": "960"}, {"size": "576"}]}}}, "dtype": {"type": "DT_FLOAT"}}}, {"name": "1498", "op": "Const", "attr": {"value": {"tensor": {"dtype": "DT_FLOAT", "tensorShape": {"dim": [{"size": "576"}]}}}, "dtype": {"type": "DT_FLOAT"}}}, {"name": "1500", "op": "Const", "attr": {"dtype": {"type": "DT_INT64"}, "value": {"tensor": {"dtype": "DT_INT64", "tensorShape": {"dim": [{"size": "4"}]}}}}}, {"name": "1502", "op": "Const", "attr": {"value": {"tensor": {"dtype": "DT_INT64", "tensorShape": {"dim": [{"size": "4"}]}}}, "dtype": {"type": "DT_INT64"}}}, {"name": "PartitionedCall/model_2/tf.strided_slice_31/ones_like", "op": "Const", "attr": {"dtype": {"type": "DT_INT64"}, "value": {"tensor": {"dtype": "DT_INT64", "tensorShape": {"dim": [{"size": "4"}]}}}}}, {"name": "1504", "op": "Const", "attr": {"value": {"tensor": {"dtype": "DT_FLOAT", "tensorShape": {"dim": [{"size": "3"}, {"size": "3"}, {"size": "288"}, {"size": "288"}]}}}, "dtype": {"type": "DT_FLOAT"}}}, {"name": "1506", "op": "Const", "attr": {"value": {"tensor": {"dtype": "DT_FLOAT", "tensorShape": {"dim": [{"size": "288"}]}}}, "dtype": {"type": "DT_FLOAT"}}}, {"name": "1508", "op": "Const", "attr": {"value": {"tensor": {"dtype": "DT_FLOAT", "tensorShape": {"dim": [{"size": "3"}, {"size": "3"}, {"size": "288"}, {"size": "288"}]}}}, "dtype": {"type": "DT_FLOAT"}}}, {"name": "1510", "op": "Const", "attr": {"dtype": {"type": "DT_FLOAT"}, "value": {"tensor": {"dtype": "DT_FLOAT", "tensorShape": {"dim": [{"size": "288"}]}}}}}, {"name": "1512", "op": "Const", "attr": {"dtype": {"type": "DT_FLOAT"}, "value": {"tensor": {"dtype": "DT_FLOAT", "tensorShape": {"dim": [{"size": "3"}, {"size": "3"}, {"size": "288"}, {"size": "288"}]}}}}}, {"name": "1514", "op": "Const", "attr": {"dtype": {"type": "DT_FLOAT"}, "value": {"tensor": {"dtype": "DT_FLOAT", "tensorShape": {"dim": [{"size": "288"}]}}}}}, {"name": "1516", "op": "Const", "attr": {"dtype": {"type": "DT_FLOAT"}, "value": {"tensor": {"dtype": "DT_FLOAT", "tensorShape": {"dim": [{"size": "3"}, {"size": "3"}, {"size": "288"}, {"size": "288"}]}}}}}, {"name": "1518", "op": "Const", "attr": {"dtype": {"type": "DT_FLOAT"}, "value": {"tensor": {"dtype": "DT_FLOAT", "tensorShape": {"dim": [{"size": "288"}]}}}}}, {"name": "PartitionedCall/model_2/tf.concat_14/concat/axis", "op": "Const", "attr": {"dtype": {"type": "DT_INT32"}, "value": {"tensor": {"dtype": "DT_INT32", "tensorShape": {}}}}}, {"name": "1524", "op": "Const", "attr": {"dtype": {"type": "DT_FLOAT"}, "value": {"tensor": {"dtype": "DT_FLOAT", "tensorShape": {"dim": [{"size": "1"}, {"size": "1"}, {"size": "1152"}, {"size": "576"}]}}}}}, {"name": "1526", "op": "Const", "attr": {"value": {"tensor": {"dtype": "DT_FLOAT", "tensorShape": {"dim": [{"size": "576"}]}}}, "dtype": {"type": "DT_FLOAT"}}}, {"name": "1528", "op": "Const", "attr": {"dtype": {"type": "DT_FLOAT"}, "value": {"tensor": {"dtype": "DT_FLOAT", "tensorShape": {"dim": [{"size": "3"}, {"size": "3"}, {"size": "576"}, {"size": "192"}]}}}}}, {"name": "1540", "op": "Const", "attr": {"value": {"tensor": {"dtype": "DT_FLOAT", "tensorShape": {"dim": [{"size": "192"}]}}}, "dtype": {"type": "DT_FLOAT"}}}, {"name": "1552", "op": "Const", "attr": {"dtype": {"type": "DT_FLOAT"}, "value": {"tensor": {"dtype": "DT_FLOAT", "tensorShape": {"dim": [{"size": "3"}, {"size": "3"}, {"size": "192"}, {"size": "192"}]}}}}}, {"name": "1564", "op": "Const", "attr": {"value": {"tensor": {"dtype": "DT_FLOAT", "tensorShape": {"dim": [{"size": "192"}]}}}, "dtype": {"type": "DT_FLOAT"}}}, {"name": "1576", "op": "Const", "attr": {"value": {"tensor": {"dtype": "DT_FLOAT", "tensorShape": {"dim": [{"size": "1"}, {"size": "1"}, {"size": "192"}, {"size": "13"}]}}}, "dtype": {"type": "DT_FLOAT"}}}, {"name": "1590", "op": "Const", "attr": {"value": {"tensor": {"dtype": "DT_FLOAT", "tensorShape": {"dim": [{"size": "13"}]}}}, "dtype": {"type": "DT_FLOAT"}}}, {"name": "PartitionedCall/model_2/tf.concat_15/concat/axis", "op": "Const", "attr": {"dtype": {"type": "DT_INT32"}, "value": {"tensor": {"dtype": "DT_INT32", "tensorShape": {}}}}}, {"name": "PartitionedCall/model_2/tf.compat.v1.transpose_2/transpose/perm", "op": "Const", "attr": {"dtype": {"type": "DT_INT32"}, "value": {"tensor": {"dtype": "DT_INT32", "tensorShape": {"dim": [{"size": "4"}]}}}}}, {"name": "PartitionedCall/model_2/tf.reshape_2/Reshape/shape", "op": "Const", "attr": {"value": {"tensor": {"dtype": "DT_INT32", "tensorShape": {"dim": [{"size": "3"}]}}}, "dtype": {"type": "DT_INT32"}}}, {"name": "PartitionedCall/model_2/tf.concat_16/concat/axis", "op": "Const", "attr": {"dtype": {"type": "DT_INT32"}, "value": {"tensor": {"dtype": "DT_INT32", "tensorShape": {}}}}}, {"name": "1620", "op": "Const", "attr": {"value": {"tensor": {"dtype": "DT_INT64", "tensorShape": {"dim": [{"size": "3"}]}}}, "dtype": {"type": "DT_INT64"}}}, {"name": "1622", "op": "Const", "attr": {"dtype": {"type": "DT_INT64"}, "value": {"tensor": {"dtype": "DT_INT64", "tensorShape": {"dim": [{"size": "3"}]}}}}}, {"name": "PartitionedCall/model_2/tf.strided_slice_35/StridedSlice/strides", "op": "Const", "attr": {"dtype": {"type": "DT_INT64"}, "value": {"tensor": {"dtype": "DT_INT64", "tensorShape": {"dim": [{"size": "3"}]}}}}}, {"name": "PartitionedCall/model_2/output0/concat/axis", "op": "Const", "attr": {"value": {"tensor": {"dtype": "DT_INT32", "tensorShape": {}}}, "dtype": {"type": "DT_INT32"}}}, {"name": "x", "op": "Placeholder", "attr": {"shape": {"shape": {"dim": [{"size": "1"}, {"size": "416"}, {"size": "416"}, {"size": "3"}]}}, "dtype": {"type": "DT_FLOAT"}}}, {"name": "PartitionedCall/model_2/tf.compat.v1.pad/Pad", "op": "Pad", "input": ["x", "1190"], "attr": {"Tpaddings": {"type": "DT_INT32"}, "T": {"type": "DT_FLOAT"}}}, {"name": "PartitionedCall/model_2/tf.nn.convolution/convolution", "op": "Conv2D", "input": ["PartitionedCall/model_2/tf.compat.v1.pad/Pad", "1192"], "device": "/device:CPU:0", "attr": {"strides": {"list": {"i": ["1", "2", "2", "1"]}}, "T": {"type": "DT_FLOAT"}, "explicit_paddings": {"list": {}}, "dilations": {"list": {"i": ["1", "1", "1", "1"]}}, "data_format": {"s": "TkhXQw=="}, "padding": {"s": "VkFMSUQ="}, "use_cudnn_on_gpu": {"b": true}}}, {"name": "PartitionedCall/model_2/tf.math.add/Add", "op": "AddV2", "input": ["PartitionedCall/model_2/tf.nn.convolution/convolution", "1194"], "attr": {"T": {"type": "DT_FLOAT"}}}, {"name": "PartitionedCall/model_2/tf.math.sigmoid/Sigmoid", "op": "Sigmoid", "input": ["PartitionedCall/model_2/tf.math.add/Add"], "attr": {"T": {"type": "DT_FLOAT"}}}, {"name": "PartitionedCall/model_2/tf.math.multiply_2/Mul", "op": "Mul", "input": ["PartitionedCall/model_2/tf.math.add/Add", "PartitionedCall/model_2/tf.math.sigmoid/Sigmoid"], "attr": {"T": {"type": "DT_FLOAT"}}}, {"name": "PartitionedCall/model_2/tf.compat.v1.pad_1/Pad", "op": "Pad", "input": ["PartitionedCall/model_2/tf.math.multiply_2/Mul", "1196"], "attr": {"T": {"type": "DT_FLOAT"}, "Tpaddings": {"type": "DT_INT32"}}}, {"name": "PartitionedCall/model_2/tf.nn.convolution_1/convolution", "op": "Conv2D", "input": ["PartitionedCall/model_2/tf.compat.v1.pad_1/Pad", "1198"], "device": "/device:CPU:0", "attr": {"data_format": {"s": "TkhXQw=="}, "explicit_paddings": {"list": {}}, "T": {"type": "DT_FLOAT"}, "dilations": {"list": {"i": ["1", "1", "1", "1"]}}, "use_cudnn_on_gpu": {"b": true}, "strides": {"list": {"i": ["1", "2", "2", "1"]}}, "padding": {"s": "VkFMSUQ="}}}, {"name": "PartitionedCall/model_2/tf.math.add_1/Add", "op": "AddV2", "input": ["PartitionedCall/model_2/tf.nn.convolution_1/convolution", "1200"], "attr": {"T": {"type": "DT_FLOAT"}}}, {"name": "PartitionedCall/model_2/tf.math.sigmoid_1/Sigmoid", "op": "Sigmoid", "input": ["PartitionedCall/model_2/tf.math.add_1/Add"], "attr": {"T": {"type": "DT_FLOAT"}}}, {"name": "PartitionedCall/model_2/tf.math.multiply_5/Mul", "op": "Mul", "input": ["PartitionedCall/model_2/tf.math.add_1/Add", "PartitionedCall/model_2/tf.math.sigmoid_1/Sigmoid"], "attr": {"T": {"type": "DT_FLOAT"}}}, {"name": "PartitionedCall/model_2/tf.nn.convolution_2/convolution", "op": "Conv2D", "input": ["PartitionedCall/model_2/tf.math.multiply_5/Mul", "1202"], "device": "/device:CPU:0", "attr": {"padding": {"s": "U0FNRQ=="}, "explicit_paddings": {"list": {}}, "T": {"type": "DT_FLOAT"}, "dilations": {"list": {"i": ["1", "1", "1", "1"]}}, "use_cudnn_on_gpu": {"b": true}, "data_format": {"s": "TkhXQw=="}, "strides": {"list": {"i": ["1", "1", "1", "1"]}}}}, {"name": "PartitionedCall/model_2/tf.math.add_2/Add", "op": "AddV2", "input": ["PartitionedCall/model_2/tf.nn.convolution_2/convolution", "1204"], "attr": {"T": {"type": "DT_FLOAT"}}}, {"name": "PartitionedCall/model_2/tf.math.sigmoid_2/Sigmoid", "op": "Sigmoid", "input": ["PartitionedCall/model_2/tf.math.add_2/Add"], "attr": {"T": {"type": "DT_FLOAT"}}}, {"name": "PartitionedCall/model_2/tf.math.multiply_8/Mul", "op": "Mul", "input": ["PartitionedCall/model_2/tf.math.add_2/Add", "PartitionedCall/model_2/tf.math.sigmoid_2/Sigmoid"], "attr": {"T": {"type": "DT_FLOAT"}}}, {"name": "PartitionedCall/model_2/tf.strided_slice_1/StridedSlice", "op": "StridedSlice", "input": ["PartitionedCall/model_2/tf.math.multiply_8/Mul", "1226", "1228", "PartitionedCall/model_2/tf.strided_slice_1/ones_like"], "attr": {"new_axis_mask": {"i": "0"}, "ellipsis_mask": {"i": "0"}, "T": {"type": "DT_FLOAT"}, "end_mask": {"i": "7"}, "Index": {"type": "DT_INT64"}, "shrink_axis_mask": {"i": "0"}, "begin_mask": {"i": "15"}}}, {"name": "PartitionedCall/model_2/tf.strided_slice_3/StridedSlice", "op": "StridedSlice", "input": ["PartitionedCall/model_2/tf.math.multiply_8/Mul", "1206", "1208", "PartitionedCall/model_2/tf.strided_slice_3/ones_like"], "attr": {"ellipsis_mask": {"i": "0"}, "T": {"type": "DT_FLOAT"}, "end_mask": {"i": "7"}, "begin_mask": {"i": "7"}, "Index": {"type": "DT_INT64"}, "new_axis_mask": {"i": "0"}, "shrink_axis_mask": {"i": "0"}}}, {"name": "PartitionedCall/model_2/tf.nn.convolution_3/convolution", "op": "Conv2D", "input": ["PartitionedCall/model_2/tf.strided_slice_3/StridedSlice", "1210"], "device": "/device:CPU:0", "attr": {"data_format": {"s": "TkhXQw=="}, "dilations": {"list": {"i": ["1", "1", "1", "1"]}}, "strides": {"list": {"i": ["1", "1", "1", "1"]}}, "explicit_paddings": {"list": {}}, "T": {"type": "DT_FLOAT"}, "use_cudnn_on_gpu": {"b": true}, "padding": {"s": "U0FNRQ=="}}}, {"name": "PartitionedCall/model_2/tf.math.add_3/Add", "op": "AddV2", "input": ["PartitionedCall/model_2/tf.nn.convolution_3/convolution", "1212"], "attr": {"T": {"type": "DT_FLOAT"}}}, {"name": "PartitionedCall/model_2/tf.math.sigmoid_3/Sigmoid", "op": "Sigmoid", "input": ["PartitionedCall/model_2/tf.math.add_3/Add"], "attr": {"T": {"type": "DT_FLOAT"}}}, {"name": "PartitionedCall/model_2/tf.math.multiply_11/Mul", "op": "Mul", "input": ["PartitionedCall/model_2/tf.math.add_3/Add", "PartitionedCall/model_2/tf.math.sigmoid_3/Sigmoid"], "attr": {"T": {"type": "DT_FLOAT"}}}, {"name": "PartitionedCall/model_2/tf.nn.convolution_4/convolution", "op": "Conv2D", "input": ["PartitionedCall/model_2/tf.math.multiply_11/Mul", "1214"], "device": "/device:CPU:0", "attr": {"strides": {"list": {"i": ["1", "1", "1", "1"]}}, "padding": {"s": "U0FNRQ=="}, "data_format": {"s": "TkhXQw=="}, "explicit_paddings": {"list": {}}, "T": {"type": "DT_FLOAT"}, "use_cudnn_on_gpu": {"b": true}, "dilations": {"list": {"i": ["1", "1", "1", "1"]}}}}, {"name": "PartitionedCall/model_2/tf.math.add_4/Add", "op": "AddV2", "input": ["PartitionedCall/model_2/tf.nn.convolution_4/convolution", "1216"], "attr": {"T": {"type": "DT_FLOAT"}}}, {"name": "PartitionedCall/model_2/tf.math.sigmoid_4/Sigmoid", "op": "Sigmoid", "input": ["PartitionedCall/model_2/tf.math.add_4/Add"], "attr": {"T": {"type": "DT_FLOAT"}}}, {"name": "PartitionedCall/model_2/tf.math.multiply_14/Mul", "op": "Mul", "input": ["PartitionedCall/model_2/tf.math.add_4/Add", "PartitionedCall/model_2/tf.math.sigmoid_4/Sigmoid"], "attr": {"T": {"type": "DT_FLOAT"}}}, {"name": "PartitionedCall/model_2/tf.math.add_6/Add", "op": "AddV2", "input": ["PartitionedCall/model_2/tf.strided_slice_3/StridedSlice", "PartitionedCall/model_2/tf.math.multiply_14/Mul"], "attr": {"T": {"type": "DT_FLOAT"}}}, {"name": "PartitionedCall/model_2/tf.nn.convolution_5/convolution", "op": "Conv2D", "input": ["PartitionedCall/model_2/tf.math.add_6/Add", "1218"], "device": "/device:CPU:0", "attr": {"explicit_paddings": {"list": {}}, "T": {"type": "DT_FLOAT"}, "dilations": {"list": {"i": ["1", "1", "1", "1"]}}, "padding": {"s": "U0FNRQ=="}, "use_cudnn_on_gpu": {"b": true}, "data_format": {"s": "TkhXQw=="}, "strides": {"list": {"i": ["1", "1", "1", "1"]}}}}, {"name": "PartitionedCall/model_2/tf.math.add_7/Add", "op": "AddV2", "input": ["PartitionedCall/model_2/tf.nn.convolution_5/convolution", "1220"], "attr": {"T": {"type": "DT_FLOAT"}}}, {"name": "PartitionedCall/model_2/tf.math.sigmoid_5/Sigmoid", "op": "Sigmoid", "input": ["PartitionedCall/model_2/tf.math.add_7/Add"], "attr": {"T": {"type": "DT_FLOAT"}}}, {"name": "PartitionedCall/model_2/tf.math.multiply_18/Mul", "op": "Mul", "input": ["PartitionedCall/model_2/tf.math.add_7/Add", "PartitionedCall/model_2/tf.math.sigmoid_5/Sigmoid"], "attr": {"T": {"type": "DT_FLOAT"}}}, {"name": "PartitionedCall/model_2/tf.nn.convolution_6/convolution", "op": "Conv2D", "input": ["PartitionedCall/model_2/tf.math.multiply_18/Mul", "1222"], "device": "/device:CPU:0", "attr": {"T": {"type": "DT_FLOAT"}, "use_cudnn_on_gpu": {"b": true}, "explicit_paddings": {"list": {}}, "padding": {"s": "U0FNRQ=="}, "dilations": {"list": {"i": ["1", "1", "1", "1"]}}, "strides": {"list": {"i": ["1", "1", "1", "1"]}}, "data_format": {"s": "TkhXQw=="}}}, {"name": "PartitionedCall/model_2/tf.math.add_8/Add", "op": "AddV2", "input": ["PartitionedCall/model_2/tf.nn.convolution_6/convolution", "1224"], "attr": {"T": {"type": "DT_FLOAT"}}}, {"name": "PartitionedCall/model_2/tf.math.sigmoid_6/Sigmoid", "op": "Sigmoid", "input": ["PartitionedCall/model_2/tf.math.add_8/Add"], "attr": {"T": {"type": "DT_FLOAT"}}}, {"name": "PartitionedCall/model_2/tf.math.multiply_21/Mul", "op": "Mul", "input": ["PartitionedCall/model_2/tf.math.add_8/Add", "PartitionedCall/model_2/tf.math.sigmoid_6/Sigmoid"], "attr": {"T": {"type": "DT_FLOAT"}}}, {"name": "PartitionedCall/model_2/tf.math.add_10/Add", "op": "AddV2", "input": ["PartitionedCall/model_2/tf.math.add_6/Add", "PartitionedCall/model_2/tf.math.multiply_21/Mul"], "attr": {"T": {"type": "DT_FLOAT"}}}, {"name": "PartitionedCall/model_2/tf.concat/concat", "op": "ConcatV2", "input": ["PartitionedCall/model_2/tf.strided_slice_1/StridedSlice", "PartitionedCall/model_2/tf.strided_slice_3/StridedSlice", "PartitionedCall/model_2/tf.math.add_6/Add", "PartitionedCall/model_2/tf.math.add_10/Add", "PartitionedCall/model_2/tf.concat/concat/axis"], "attr": {"N": {"i": "4"}, "T": {"type": "DT_FLOAT"}, "Tidx": {"type": "DT_INT32"}}}, {"name": "PartitionedCall/model_2/tf.nn.convolution_7/convolution", "op": "Conv2D", "input": ["PartitionedCall/model_2/tf.concat/concat", "1230"], "device": "/device:CPU:0", "attr": {"T": {"type": "DT_FLOAT"}, "padding": {"s": "U0FNRQ=="}, "explicit_paddings": {"list": {}}, "strides": {"list": {"i": ["1", "1", "1", "1"]}}, "dilations": {"list": {"i": ["1", "1", "1", "1"]}}, "data_format": {"s": "TkhXQw=="}, "use_cudnn_on_gpu": {"b": true}}}, {"name": "PartitionedCall/model_2/tf.math.add_11/Add", "op": "AddV2", "input": ["PartitionedCall/model_2/tf.nn.convolution_7/convolution", "1232"], "attr": {"T": {"type": "DT_FLOAT"}}}, {"name": "PartitionedCall/model_2/tf.math.sigmoid_7/Sigmoid", "op": "Sigmoid", "input": ["PartitionedCall/model_2/tf.math.add_11/Add"], "attr": {"T": {"type": "DT_FLOAT"}}}, {"name": "PartitionedCall/model_2/tf.math.multiply_25/Mul", "op": "Mul", "input": ["PartitionedCall/model_2/tf.math.add_11/Add", "PartitionedCall/model_2/tf.math.sigmoid_7/Sigmoid"], "attr": {"T": {"type": "DT_FLOAT"}}}, {"name": "PartitionedCall/model_2/tf.compat.v1.pad_2/Pad", "op": "Pad", "input": ["PartitionedCall/model_2/tf.math.multiply_25/Mul", "1234"], "attr": {"T": {"type": "DT_FLOAT"}, "Tpaddings": {"type": "DT_INT32"}}}, {"name": "PartitionedCall/model_2/tf.nn.convolution_8/convolution", "op": "Conv2D", "input": ["PartitionedCall/model_2/tf.compat.v1.pad_2/Pad", "1236"], "device": "/device:CPU:0", "attr": {"padding": {"s": "VkFMSUQ="}, "strides": {"list": {"i": ["1", "2", "2", "1"]}}, "use_cudnn_on_gpu": {"b": true}, "explicit_paddings": {"list": {}}, "T": {"type": "DT_FLOAT"}, "data_format": {"s": "TkhXQw=="}, "dilations": {"list": {"i": ["1", "1", "1", "1"]}}}}, {"name": "PartitionedCall/model_2/tf.math.add_12/Add", "op": "AddV2", "input": ["PartitionedCall/model_2/tf.nn.convolution_8/convolution", "1238"], "attr": {"T": {"type": "DT_FLOAT"}}}, {"name": "PartitionedCall/model_2/tf.math.sigmoid_8/Sigmoid", "op": "Sigmoid", "input": ["PartitionedCall/model_2/tf.math.add_12/Add"], "attr": {"T": {"type": "DT_FLOAT"}}}, {"name": "PartitionedCall/model_2/tf.math.multiply_28/Mul", "op": "Mul", "input": ["PartitionedCall/model_2/tf.math.add_12/Add", "PartitionedCall/model_2/tf.math.sigmoid_8/Sigmoid"], "attr": {"T": {"type": "DT_FLOAT"}}}, {"name": "PartitionedCall/model_2/tf.nn.convolution_9/convolution", "op": "Conv2D", "input": ["PartitionedCall/model_2/tf.math.multiply_28/Mul", "1240"], "device": "/device:CPU:0", "attr": {"T": {"type": "DT_FLOAT"}, "data_format": {"s": "TkhXQw=="}, "strides": {"list": {"i": ["1", "1", "1", "1"]}}, "padding": {"s": "U0FNRQ=="}, "use_cudnn_on_gpu": {"b": true}, "dilations": {"list": {"i": ["1", "1", "1", "1"]}}, "explicit_paddings": {"list": {}}}}, {"name": "PartitionedCall/model_2/tf.math.add_13/Add", "op": "AddV2", "input": ["PartitionedCall/model_2/tf.nn.convolution_9/convolution", "1242"], "attr": {"T": {"type": "DT_FLOAT"}}}, {"name": "PartitionedCall/model_2/tf.math.sigmoid_9/Sigmoid", "op": "Sigmoid", "input": ["PartitionedCall/model_2/tf.math.add_13/Add"], "attr": {"T": {"type": "DT_FLOAT"}}}, {"name": "PartitionedCall/model_2/tf.math.multiply_31/Mul", "op": "Mul", "input": ["PartitionedCall/model_2/tf.math.add_13/Add", "PartitionedCall/model_2/tf.math.sigmoid_9/Sigmoid"], "attr": {"T": {"type": "DT_FLOAT"}}}, {"name": "PartitionedCall/model_2/tf.strided_slice_5/StridedSlice", "op": "StridedSlice", "input": ["PartitionedCall/model_2/tf.math.multiply_31/Mul", "1280", "1282", "PartitionedCall/model_2/tf.strided_slice_5/ones_like"], "attr": {"new_axis_mask": {"i": "0"}, "begin_mask": {"i": "15"}, "Index": {"type": "DT_INT64"}, "end_mask": {"i": "7"}, "shrink_axis_mask": {"i": "0"}, "T": {"type": "DT_FLOAT"}, "ellipsis_mask": {"i": "0"}}}, {"name": "PartitionedCall/model_2/tf.strided_slice_7/StridedSlice", "op": "StridedSlice", "input": ["PartitionedCall/model_2/tf.math.multiply_31/Mul", "1244", "1246", "PartitionedCall/model_2/tf.strided_slice_7/ones_like"], "attr": {"begin_mask": {"i": "7"}, "shrink_axis_mask": {"i": "0"}, "end_mask": {"i": "7"}, "new_axis_mask": {"i": "0"}, "Index": {"type": "DT_INT64"}, "ellipsis_mask": {"i": "0"}, "T": {"type": "DT_FLOAT"}}}, {"name": "PartitionedCall/model_2/tf.nn.convolution_10/convolution", "op": "Conv2D", "input": ["PartitionedCall/model_2/tf.strided_slice_7/StridedSlice", "1248"], "device": "/device:CPU:0", "attr": {"dilations": {"list": {"i": ["1", "1", "1", "1"]}}, "strides": {"list": {"i": ["1", "1", "1", "1"]}}, "data_format": {"s": "TkhXQw=="}, "use_cudnn_on_gpu": {"b": true}, "T": {"type": "DT_FLOAT"}, "explicit_paddings": {"list": {}}, "padding": {"s": "U0FNRQ=="}}}, {"name": "PartitionedCall/model_2/tf.math.add_14/Add", "op": "AddV2", "input": ["PartitionedCall/model_2/tf.nn.convolution_10/convolution", "1250"], "attr": {"T": {"type": "DT_FLOAT"}}}, {"name": "PartitionedCall/model_2/tf.math.sigmoid_10/Sigmoid", "op": "Sigmoid", "input": ["PartitionedCall/model_2/tf.math.add_14/Add"], "attr": {"T": {"type": "DT_FLOAT"}}}, {"name": "PartitionedCall/model_2/tf.math.multiply_34/Mul", "op": "Mul", "input": ["PartitionedCall/model_2/tf.math.add_14/Add", "PartitionedCall/model_2/tf.math.sigmoid_10/Sigmoid"], "attr": {"T": {"type": "DT_FLOAT"}}}, {"name": "PartitionedCall/model_2/tf.nn.convolution_11/convolution", "op": "Conv2D", "input": ["PartitionedCall/model_2/tf.math.multiply_34/Mul", "1252"], "device": "/device:CPU:0", "attr": {"use_cudnn_on_gpu": {"b": true}, "padding": {"s": "U0FNRQ=="}, "strides": {"list": {"i": ["1", "1", "1", "1"]}}, "T": {"type": "DT_FLOAT"}, "explicit_paddings": {"list": {}}, "data_format": {"s": "TkhXQw=="}, "dilations": {"list": {"i": ["1", "1", "1", "1"]}}}}, {"name": "PartitionedCall/model_2/tf.math.add_15/Add", "op": "AddV2", "input": ["PartitionedCall/model_2/tf.nn.convolution_11/convolution", "1254"], "attr": {"T": {"type": "DT_FLOAT"}}}, {"name": "PartitionedCall/model_2/tf.math.sigmoid_11/Sigmoid", "op": "Sigmoid", "input": ["PartitionedCall/model_2/tf.math.add_15/Add"], "attr": {"T": {"type": "DT_FLOAT"}}}, {"name": "PartitionedCall/model_2/tf.math.multiply_37/Mul", "op": "Mul", "input": ["PartitionedCall/model_2/tf.math.add_15/Add", "PartitionedCall/model_2/tf.math.sigmoid_11/Sigmoid"], "attr": {"T": {"type": "DT_FLOAT"}}}, {"name": "PartitionedCall/model_2/tf.math.add_17/Add", "op": "AddV2", "input": ["PartitionedCall/model_2/tf.strided_slice_7/StridedSlice", "PartitionedCall/model_2/tf.math.multiply_37/Mul"], "attr": {"T": {"type": "DT_FLOAT"}}}, {"name": "PartitionedCall/model_2/tf.nn.convolution_12/convolution", "op": "Conv2D", "input": ["PartitionedCall/model_2/tf.math.add_17/Add", "1256"], "device": "/device:CPU:0", "attr": {"explicit_paddings": {"list": {}}, "T": {"type": "DT_FLOAT"}, "use_cudnn_on_gpu": {"b": true}, "data_format": {"s": "TkhXQw=="}, "dilations": {"list": {"i": ["1", "1", "1", "1"]}}, "padding": {"s": "U0FNRQ=="}, "strides": {"list": {"i": ["1", "1", "1", "1"]}}}}, {"name": "PartitionedCall/model_2/tf.math.add_18/Add", "op": "AddV2", "input": ["PartitionedCall/model_2/tf.nn.convolution_12/convolution", "1258"], "attr": {"T": {"type": "DT_FLOAT"}}}, {"name": "PartitionedCall/model_2/tf.math.sigmoid_12/Sigmoid", "op": "Sigmoid", "input": ["PartitionedCall/model_2/tf.math.add_18/Add"], "attr": {"T": {"type": "DT_FLOAT"}}}, {"name": "PartitionedCall/model_2/tf.math.multiply_41/Mul", "op": "Mul", "input": ["PartitionedCall/model_2/tf.math.add_18/Add", "PartitionedCall/model_2/tf.math.sigmoid_12/Sigmoid"], "attr": {"T": {"type": "DT_FLOAT"}}}, {"name": "PartitionedCall/model_2/tf.nn.convolution_13/convolution", "op": "Conv2D", "input": ["PartitionedCall/model_2/tf.math.multiply_41/Mul", "1260"], "device": "/device:CPU:0", "attr": {"padding": {"s": "U0FNRQ=="}, "explicit_paddings": {"list": {}}, "data_format": {"s": "TkhXQw=="}, "strides": {"list": {"i": ["1", "1", "1", "1"]}}, "use_cudnn_on_gpu": {"b": true}, "dilations": {"list": {"i": ["1", "1", "1", "1"]}}, "T": {"type": "DT_FLOAT"}}}, {"name": "PartitionedCall/model_2/tf.math.add_19/Add", "op": "AddV2", "input": ["PartitionedCall/model_2/tf.nn.convolution_13/convolution", "1262"], "attr": {"T": {"type": "DT_FLOAT"}}}, {"name": "PartitionedCall/model_2/tf.math.sigmoid_13/Sigmoid", "op": "Sigmoid", "input": ["PartitionedCall/model_2/tf.math.add_19/Add"], "attr": {"T": {"type": "DT_FLOAT"}}}, {"name": "PartitionedCall/model_2/tf.math.multiply_44/Mul", "op": "Mul", "input": ["PartitionedCall/model_2/tf.math.add_19/Add", "PartitionedCall/model_2/tf.math.sigmoid_13/Sigmoid"], "attr": {"T": {"type": "DT_FLOAT"}}}, {"name": "PartitionedCall/model_2/tf.math.add_21/Add", "op": "AddV2", "input": ["PartitionedCall/model_2/tf.math.add_17/Add", "PartitionedCall/model_2/tf.math.multiply_44/Mul"], "attr": {"T": {"type": "DT_FLOAT"}}}, {"name": "PartitionedCall/model_2/tf.nn.convolution_14/convolution", "op": "Conv2D", "input": ["PartitionedCall/model_2/tf.math.add_21/Add", "1264"], "device": "/device:CPU:0", "attr": {"explicit_paddings": {"list": {}}, "padding": {"s": "U0FNRQ=="}, "strides": {"list": {"i": ["1", "1", "1", "1"]}}, "dilations": {"list": {"i": ["1", "1", "1", "1"]}}, "T": {"type": "DT_FLOAT"}, "use_cudnn_on_gpu": {"b": true}, "data_format": {"s": "TkhXQw=="}}}, {"name": "PartitionedCall/model_2/tf.math.add_22/Add", "op": "AddV2", "input": ["PartitionedCall/model_2/tf.nn.convolution_14/convolution", "1266"], "attr": {"T": {"type": "DT_FLOAT"}}}, {"name": "PartitionedCall/model_2/tf.math.sigmoid_14/Sigmoid", "op": "Sigmoid", "input": ["PartitionedCall/model_2/tf.math.add_22/Add"], "attr": {"T": {"type": "DT_FLOAT"}}}, {"name": "PartitionedCall/model_2/tf.math.multiply_48/Mul", "op": "Mul", "input": ["PartitionedCall/model_2/tf.math.add_22/Add", "PartitionedCall/model_2/tf.math.sigmoid_14/Sigmoid"], "attr": {"T": {"type": "DT_FLOAT"}}}, {"name": "PartitionedCall/model_2/tf.nn.convolution_15/convolution", "op": "Conv2D", "input": ["PartitionedCall/model_2/tf.math.multiply_48/Mul", "1268"], "device": "/device:CPU:0", "attr": {"strides": {"list": {"i": ["1", "1", "1", "1"]}}, "use_cudnn_on_gpu": {"b": true}, "explicit_paddings": {"list": {}}, "data_format": {"s": "TkhXQw=="}, "T": {"type": "DT_FLOAT"}, "dilations": {"list": {"i": ["1", "1", "1", "1"]}}, "padding": {"s": "U0FNRQ=="}}}, {"name": "PartitionedCall/model_2/tf.math.add_23/Add", "op": "AddV2", "input": ["PartitionedCall/model_2/tf.nn.convolution_15/convolution", "1270"], "attr": {"T": {"type": "DT_FLOAT"}}}, {"name": "PartitionedCall/model_2/tf.math.sigmoid_15/Sigmoid", "op": "Sigmoid", "input": ["PartitionedCall/model_2/tf.math.add_23/Add"], "attr": {"T": {"type": "DT_FLOAT"}}}, {"name": "PartitionedCall/model_2/tf.math.multiply_51/Mul", "op": "Mul", "input": ["PartitionedCall/model_2/tf.math.add_23/Add", "PartitionedCall/model_2/tf.math.sigmoid_15/Sigmoid"], "attr": {"T": {"type": "DT_FLOAT"}}}, {"name": "PartitionedCall/model_2/tf.math.add_25/Add", "op": "AddV2", "input": ["PartitionedCall/model_2/tf.math.add_21/Add", "PartitionedCall/model_2/tf.math.multiply_51/Mul"], "attr": {"T": {"type": "DT_FLOAT"}}}, {"name": "PartitionedCall/model_2/tf.nn.convolution_16/convolution", "op": "Conv2D", "input": ["PartitionedCall/model_2/tf.math.add_25/Add", "1272"], "device": "/device:CPU:0", "attr": {"T": {"type": "DT_FLOAT"}, "explicit_paddings": {"list": {}}, "use_cudnn_on_gpu": {"b": true}, "data_format": {"s": "TkhXQw=="}, "padding": {"s": "U0FNRQ=="}, "dilations": {"list": {"i": ["1", "1", "1", "1"]}}, "strides": {"list": {"i": ["1", "1", "1", "1"]}}}}, {"name": "PartitionedCall/model_2/tf.math.add_26/Add", "op": "AddV2", "input": ["PartitionedCall/model_2/tf.nn.convolution_16/convolution", "1274"], "attr": {"T": {"type": "DT_FLOAT"}}}, {"name": "PartitionedCall/model_2/tf.math.sigmoid_16/Sigmoid", "op": "Sigmoid", "input": ["PartitionedCall/model_2/tf.math.add_26/Add"], "attr": {"T": {"type": "DT_FLOAT"}}}, {"name": "PartitionedCall/model_2/tf.math.multiply_55/Mul", "op": "Mul", "input": ["PartitionedCall/model_2/tf.math.add_26/Add", "PartitionedCall/model_2/tf.math.sigmoid_16/Sigmoid"], "attr": {"T": {"type": "DT_FLOAT"}}}, {"name": "PartitionedCall/model_2/tf.nn.convolution_17/convolution", "op": "Conv2D", "input": ["PartitionedCall/model_2/tf.math.multiply_55/Mul", "1276"], "device": "/device:CPU:0", "attr": {"T": {"type": "DT_FLOAT"}, "use_cudnn_on_gpu": {"b": true}, "explicit_paddings": {"list": {}}, "strides": {"list": {"i": ["1", "1", "1", "1"]}}, "dilations": {"list": {"i": ["1", "1", "1", "1"]}}, "data_format": {"s": "TkhXQw=="}, "padding": {"s": "U0FNRQ=="}}}, {"name": "PartitionedCall/model_2/tf.math.add_27/Add", "op": "AddV2", "input": ["PartitionedCall/model_2/tf.nn.convolution_17/convolution", "1278"], "attr": {"T": {"type": "DT_FLOAT"}}}, {"name": "PartitionedCall/model_2/tf.math.sigmoid_17/Sigmoid", "op": "Sigmoid", "input": ["PartitionedCall/model_2/tf.math.add_27/Add"], "attr": {"T": {"type": "DT_FLOAT"}}}, {"name": "PartitionedCall/model_2/tf.math.multiply_58/Mul", "op": "Mul", "input": ["PartitionedCall/model_2/tf.math.add_27/Add", "PartitionedCall/model_2/tf.math.sigmoid_17/Sigmoid"], "attr": {"T": {"type": "DT_FLOAT"}}}, {"name": "PartitionedCall/model_2/tf.math.add_29/Add", "op": "AddV2", "input": ["PartitionedCall/model_2/tf.math.add_25/Add", "PartitionedCall/model_2/tf.math.multiply_58/Mul"], "attr": {"T": {"type": "DT_FLOAT"}}}, {"name": "PartitionedCall/model_2/tf.concat_1/concat", "op": "ConcatV2", "input": ["PartitionedCall/model_2/tf.strided_slice_5/StridedSlice", "PartitionedCall/model_2/tf.strided_slice_7/StridedSlice", "PartitionedCall/model_2/tf.math.add_17/Add", "PartitionedCall/model_2/tf.math.add_21/Add", "PartitionedCall/model_2/tf.math.add_25/Add", "PartitionedCall/model_2/tf.math.add_29/Add", "PartitionedCall/model_2/tf.concat_1/concat/axis"], "attr": {"T": {"type": "DT_FLOAT"}, "N": {"i": "6"}, "Tidx": {"type": "DT_INT32"}}}, {"name": "PartitionedCall/model_2/tf.nn.convolution_18/convolution", "op": "Conv2D", "input": ["PartitionedCall/model_2/tf.concat_1/concat", "1284"], "device": "/device:CPU:0", "attr": {"padding": {"s": "U0FNRQ=="}, "strides": {"list": {"i": ["1", "1", "1", "1"]}}, "dilations": {"list": {"i": ["1", "1", "1", "1"]}}, "explicit_paddings": {"list": {}}, "use_cudnn_on_gpu": {"b": true}, "data_format": {"s": "TkhXQw=="}, "T": {"type": "DT_FLOAT"}}}, {"name": "PartitionedCall/model_2/tf.math.add_30/Add", "op": "AddV2", "input": ["PartitionedCall/model_2/tf.nn.convolution_18/convolution", "1286"], "attr": {"T": {"type": "DT_FLOAT"}}}, {"name": "PartitionedCall/model_2/tf.math.sigmoid_18/Sigmoid", "op": "Sigmoid", "input": ["PartitionedCall/model_2/tf.math.add_30/Add"], "attr": {"T": {"type": "DT_FLOAT"}}}, {"name": "PartitionedCall/model_2/tf.math.multiply_62/Mul", "op": "Mul", "input": ["PartitionedCall/model_2/tf.math.add_30/Add", "PartitionedCall/model_2/tf.math.sigmoid_18/Sigmoid"], "attr": {"T": {"type": "DT_FLOAT"}}}, {"name": "PartitionedCall/model_2/tf.compat.v1.pad_3/Pad", "op": "Pad", "input": ["PartitionedCall/model_2/tf.math.multiply_62/Mul", "1288"], "attr": {"T": {"type": "DT_FLOAT"}, "Tpaddings": {"type": "DT_INT32"}}}, {"name": "PartitionedCall/model_2/tf.nn.convolution_19/convolution", "op": "Conv2D", "input": ["PartitionedCall/model_2/tf.compat.v1.pad_3/Pad", "1290"], "device": "/device:CPU:0", "attr": {"use_cudnn_on_gpu": {"b": true}, "T": {"type": "DT_FLOAT"}, "dilations": {"list": {"i": ["1", "1", "1", "1"]}}, "padding": {"s": "VkFMSUQ="}, "explicit_paddings": {"list": {}}, "strides": {"list": {"i": ["1", "2", "2", "1"]}}, "data_format": {"s": "TkhXQw=="}}}, {"name": "PartitionedCall/model_2/tf.math.add_31/Add", "op": "AddV2", "input": ["PartitionedCall/model_2/tf.nn.convolution_19/convolution", "1292"], "attr": {"T": {"type": "DT_FLOAT"}}}, {"name": "PartitionedCall/model_2/tf.math.sigmoid_19/Sigmoid", "op": "Sigmoid", "input": ["PartitionedCall/model_2/tf.math.add_31/Add"], "attr": {"T": {"type": "DT_FLOAT"}}}, {"name": "PartitionedCall/model_2/tf.math.multiply_65/Mul", "op": "Mul", "input": ["PartitionedCall/model_2/tf.math.add_31/Add", "PartitionedCall/model_2/tf.math.sigmoid_19/Sigmoid"], "attr": {"T": {"type": "DT_FLOAT"}}}, {"name": "PartitionedCall/model_2/tf.nn.convolution_20/convolution", "op": "Conv2D", "input": ["PartitionedCall/model_2/tf.math.multiply_65/Mul", "1294"], "device": "/device:CPU:0", "attr": {"T": {"type": "DT_FLOAT"}, "data_format": {"s": "TkhXQw=="}, "use_cudnn_on_gpu": {"b": true}, "explicit_paddings": {"list": {}}, "strides": {"list": {"i": ["1", "1", "1", "1"]}}, "padding": {"s": "U0FNRQ=="}, "dilations": {"list": {"i": ["1", "1", "1", "1"]}}}}, {"name": "PartitionedCall/model_2/tf.math.add_32/Add", "op": "AddV2", "input": ["PartitionedCall/model_2/tf.nn.convolution_20/convolution", "1296"], "attr": {"T": {"type": "DT_FLOAT"}}}, {"name": "PartitionedCall/model_2/tf.math.sigmoid_20/Sigmoid", "op": "Sigmoid", "input": ["PartitionedCall/model_2/tf.math.add_32/Add"], "attr": {"T": {"type": "DT_FLOAT"}}}, {"name": "PartitionedCall/model_2/tf.math.multiply_68/Mul", "op": "Mul", "input": ["PartitionedCall/model_2/tf.math.add_32/Add", "PartitionedCall/model_2/tf.math.sigmoid_20/Sigmoid"], "attr": {"T": {"type": "DT_FLOAT"}}}, {"name": "PartitionedCall/model_2/tf.strided_slice_9/StridedSlice", "op": "StridedSlice", "input": ["PartitionedCall/model_2/tf.math.multiply_68/Mul", "1334", "1336", "PartitionedCall/model_2/tf.strided_slice_9/ones_like"], "attr": {"Index": {"type": "DT_INT64"}, "end_mask": {"i": "7"}, "begin_mask": {"i": "15"}, "T": {"type": "DT_FLOAT"}, "new_axis_mask": {"i": "0"}, "shrink_axis_mask": {"i": "0"}, "ellipsis_mask": {"i": "0"}}}, {"name": "PartitionedCall/model_2/tf.strided_slice_11/StridedSlice", "op": "StridedSlice", "input": ["PartitionedCall/model_2/tf.math.multiply_68/Mul", "1298", "1300", "PartitionedCall/model_2/tf.strided_slice_11/ones_like"], "attr": {"new_axis_mask": {"i": "0"}, "end_mask": {"i": "7"}, "shrink_axis_mask": {"i": "0"}, "begin_mask": {"i": "7"}, "ellipsis_mask": {"i": "0"}, "Index": {"type": "DT_INT64"}, "T": {"type": "DT_FLOAT"}}}, {"name": "PartitionedCall/model_2/tf.nn.convolution_21/convolution", "op": "Conv2D", "input": ["PartitionedCall/model_2/tf.strided_slice_11/StridedSlice", "1302"], "device": "/device:CPU:0", "attr": {"data_format": {"s": "TkhXQw=="}, "padding": {"s": "U0FNRQ=="}, "T": {"type": "DT_FLOAT"}, "dilations": {"list": {"i": ["1", "1", "1", "1"]}}, "use_cudnn_on_gpu": {"b": true}, "strides": {"list": {"i": ["1", "1", "1", "1"]}}, "explicit_paddings": {"list": {}}}}, {"name": "PartitionedCall/model_2/tf.math.add_33/Add", "op": "AddV2", "input": ["PartitionedCall/model_2/tf.nn.convolution_21/convolution", "1304"], "attr": {"T": {"type": "DT_FLOAT"}}}, {"name": "PartitionedCall/model_2/tf.math.sigmoid_21/Sigmoid", "op": "Sigmoid", "input": ["PartitionedCall/model_2/tf.math.add_33/Add"], "attr": {"T": {"type": "DT_FLOAT"}}}, {"name": "PartitionedCall/model_2/tf.math.multiply_71/Mul", "op": "Mul", "input": ["PartitionedCall/model_2/tf.math.add_33/Add", "PartitionedCall/model_2/tf.math.sigmoid_21/Sigmoid"], "attr": {"T": {"type": "DT_FLOAT"}}}, {"name": "PartitionedCall/model_2/tf.nn.convolution_22/convolution", "op": "Conv2D", "input": ["PartitionedCall/model_2/tf.math.multiply_71/Mul", "1306"], "device": "/device:CPU:0", "attr": {"use_cudnn_on_gpu": {"b": true}, "padding": {"s": "U0FNRQ=="}, "T": {"type": "DT_FLOAT"}, "strides": {"list": {"i": ["1", "1", "1", "1"]}}, "explicit_paddings": {"list": {}}, "data_format": {"s": "TkhXQw=="}, "dilations": {"list": {"i": ["1", "1", "1", "1"]}}}}, {"name": "PartitionedCall/model_2/tf.math.add_34/Add", "op": "AddV2", "input": ["PartitionedCall/model_2/tf.nn.convolution_22/convolution", "1308"], "attr": {"T": {"type": "DT_FLOAT"}}}, {"name": "PartitionedCall/model_2/tf.math.sigmoid_22/Sigmoid", "op": "Sigmoid", "input": ["PartitionedCall/model_2/tf.math.add_34/Add"], "attr": {"T": {"type": "DT_FLOAT"}}}, {"name": "PartitionedCall/model_2/tf.math.multiply_74/Mul", "op": "Mul", "input": ["PartitionedCall/model_2/tf.math.add_34/Add", "PartitionedCall/model_2/tf.math.sigmoid_22/Sigmoid"], "attr": {"T": {"type": "DT_FLOAT"}}}, {"name": "PartitionedCall/model_2/tf.math.add_36/Add", "op": "AddV2", "input": ["PartitionedCall/model_2/tf.strided_slice_11/StridedSlice", "PartitionedCall/model_2/tf.math.multiply_74/Mul"], "attr": {"T": {"type": "DT_FLOAT"}}}, {"name": "PartitionedCall/model_2/tf.nn.convolution_23/convolution", "op": "Conv2D", "input": ["PartitionedCall/model_2/tf.math.add_36/Add", "1310"], "device": "/device:CPU:0", "attr": {"padding": {"s": "U0FNRQ=="}, "explicit_paddings": {"list": {}}, "data_format": {"s": "TkhXQw=="}, "strides": {"list": {"i": ["1", "1", "1", "1"]}}, "T": {"type": "DT_FLOAT"}, "use_cudnn_on_gpu": {"b": true}, "dilations": {"list": {"i": ["1", "1", "1", "1"]}}}}, {"name": "PartitionedCall/model_2/tf.math.add_37/Add", "op": "AddV2", "input": ["PartitionedCall/model_2/tf.nn.convolution_23/convolution", "1312"], "attr": {"T": {"type": "DT_FLOAT"}}}, {"name": "PartitionedCall/model_2/tf.math.sigmoid_23/Sigmoid", "op": "Sigmoid", "input": ["PartitionedCall/model_2/tf.math.add_37/Add"], "attr": {"T": {"type": "DT_FLOAT"}}}, {"name": "PartitionedCall/model_2/tf.math.multiply_78/Mul", "op": "Mul", "input": ["PartitionedCall/model_2/tf.math.add_37/Add", "PartitionedCall/model_2/tf.math.sigmoid_23/Sigmoid"], "attr": {"T": {"type": "DT_FLOAT"}}}, {"name": "PartitionedCall/model_2/tf.nn.convolution_24/convolution", "op": "Conv2D", "input": ["PartitionedCall/model_2/tf.math.multiply_78/Mul", "1314"], "device": "/device:CPU:0", "attr": {"explicit_paddings": {"list": {}}, "T": {"type": "DT_FLOAT"}, "padding": {"s": "U0FNRQ=="}, "data_format": {"s": "TkhXQw=="}, "dilations": {"list": {"i": ["1", "1", "1", "1"]}}, "strides": {"list": {"i": ["1", "1", "1", "1"]}}, "use_cudnn_on_gpu": {"b": true}}}, {"name": "PartitionedCall/model_2/tf.math.add_38/Add", "op": "AddV2", "input": ["PartitionedCall/model_2/tf.nn.convolution_24/convolution", "1316"], "attr": {"T": {"type": "DT_FLOAT"}}}, {"name": "PartitionedCall/model_2/tf.math.sigmoid_24/Sigmoid", "op": "Sigmoid", "input": ["PartitionedCall/model_2/tf.math.add_38/Add"], "attr": {"T": {"type": "DT_FLOAT"}}}, {"name": "PartitionedCall/model_2/tf.math.multiply_81/Mul", "op": "Mul", "input": ["PartitionedCall/model_2/tf.math.add_38/Add", "PartitionedCall/model_2/tf.math.sigmoid_24/Sigmoid"], "attr": {"T": {"type": "DT_FLOAT"}}}, {"name": "PartitionedCall/model_2/tf.math.add_40/Add", "op": "AddV2", "input": ["PartitionedCall/model_2/tf.math.add_36/Add", "PartitionedCall/model_2/tf.math.multiply_81/Mul"], "attr": {"T": {"type": "DT_FLOAT"}}}, {"name": "PartitionedCall/model_2/tf.nn.convolution_25/convolution", "op": "Conv2D", "input": ["PartitionedCall/model_2/tf.math.add_40/Add", "1318"], "device": "/device:CPU:0", "attr": {"padding": {"s": "U0FNRQ=="}, "explicit_paddings": {"list": {}}, "T": {"type": "DT_FLOAT"}, "data_format": {"s": "TkhXQw=="}, "use_cudnn_on_gpu": {"b": true}, "dilations": {"list": {"i": ["1", "1", "1", "1"]}}, "strides": {"list": {"i": ["1", "1", "1", "1"]}}}}, {"name": "PartitionedCall/model_2/tf.math.add_41/Add", "op": "AddV2", "input": ["PartitionedCall/model_2/tf.nn.convolution_25/convolution", "1320"], "attr": {"T": {"type": "DT_FLOAT"}}}, {"name": "PartitionedCall/model_2/tf.math.sigmoid_25/Sigmoid", "op": "Sigmoid", "input": ["PartitionedCall/model_2/tf.math.add_41/Add"], "attr": {"T": {"type": "DT_FLOAT"}}}, {"name": "PartitionedCall/model_2/tf.math.multiply_85/Mul", "op": "Mul", "input": ["PartitionedCall/model_2/tf.math.add_41/Add", "PartitionedCall/model_2/tf.math.sigmoid_25/Sigmoid"], "attr": {"T": {"type": "DT_FLOAT"}}}, {"name": "PartitionedCall/model_2/tf.nn.convolution_26/convolution", "op": "Conv2D", "input": ["PartitionedCall/model_2/tf.math.multiply_85/Mul", "1322"], "device": "/device:CPU:0", "attr": {"padding": {"s": "U0FNRQ=="}, "strides": {"list": {"i": ["1", "1", "1", "1"]}}, "T": {"type": "DT_FLOAT"}, "dilations": {"list": {"i": ["1", "1", "1", "1"]}}, "use_cudnn_on_gpu": {"b": true}, "data_format": {"s": "TkhXQw=="}, "explicit_paddings": {"list": {}}}}, {"name": "PartitionedCall/model_2/tf.math.add_42/Add", "op": "AddV2", "input": ["PartitionedCall/model_2/tf.nn.convolution_26/convolution", "1324"], "attr": {"T": {"type": "DT_FLOAT"}}}, {"name": "PartitionedCall/model_2/tf.math.sigmoid_26/Sigmoid", "op": "Sigmoid", "input": ["PartitionedCall/model_2/tf.math.add_42/Add"], "attr": {"T": {"type": "DT_FLOAT"}}}, {"name": "PartitionedCall/model_2/tf.math.multiply_88/Mul", "op": "Mul", "input": ["PartitionedCall/model_2/tf.math.add_42/Add", "PartitionedCall/model_2/tf.math.sigmoid_26/Sigmoid"], "attr": {"T": {"type": "DT_FLOAT"}}}, {"name": "PartitionedCall/model_2/tf.math.add_44/Add", "op": "AddV2", "input": ["PartitionedCall/model_2/tf.math.add_40/Add", "PartitionedCall/model_2/tf.math.multiply_88/Mul"], "attr": {"T": {"type": "DT_FLOAT"}}}, {"name": "PartitionedCall/model_2/tf.nn.convolution_27/convolution", "op": "Conv2D", "input": ["PartitionedCall/model_2/tf.math.add_44/Add", "1326"], "device": "/device:CPU:0", "attr": {"T": {"type": "DT_FLOAT"}, "dilations": {"list": {"i": ["1", "1", "1", "1"]}}, "use_cudnn_on_gpu": {"b": true}, "explicit_paddings": {"list": {}}, "data_format": {"s": "TkhXQw=="}, "strides": {"list": {"i": ["1", "1", "1", "1"]}}, "padding": {"s": "U0FNRQ=="}}}, {"name": "PartitionedCall/model_2/tf.math.add_45/Add", "op": "AddV2", "input": ["PartitionedCall/model_2/tf.nn.convolution_27/convolution", "1328"], "attr": {"T": {"type": "DT_FLOAT"}}}, {"name": "PartitionedCall/model_2/tf.math.sigmoid_27/Sigmoid", "op": "Sigmoid", "input": ["PartitionedCall/model_2/tf.math.add_45/Add"], "attr": {"T": {"type": "DT_FLOAT"}}}, {"name": "PartitionedCall/model_2/tf.math.multiply_92/Mul", "op": "Mul", "input": ["PartitionedCall/model_2/tf.math.add_45/Add", "PartitionedCall/model_2/tf.math.sigmoid_27/Sigmoid"], "attr": {"T": {"type": "DT_FLOAT"}}}, {"name": "PartitionedCall/model_2/tf.nn.convolution_28/convolution", "op": "Conv2D", "input": ["PartitionedCall/model_2/tf.math.multiply_92/Mul", "1330"], "device": "/device:CPU:0", "attr": {"explicit_paddings": {"list": {}}, "T": {"type": "DT_FLOAT"}, "dilations": {"list": {"i": ["1", "1", "1", "1"]}}, "data_format": {"s": "TkhXQw=="}, "padding": {"s": "U0FNRQ=="}, "use_cudnn_on_gpu": {"b": true}, "strides": {"list": {"i": ["1", "1", "1", "1"]}}}}, {"name": "PartitionedCall/model_2/tf.math.add_46/Add", "op": "AddV2", "input": ["PartitionedCall/model_2/tf.nn.convolution_28/convolution", "1332"], "attr": {"T": {"type": "DT_FLOAT"}}}, {"name": "PartitionedCall/model_2/tf.math.sigmoid_28/Sigmoid", "op": "Sigmoid", "input": ["PartitionedCall/model_2/tf.math.add_46/Add"], "attr": {"T": {"type": "DT_FLOAT"}}}, {"name": "PartitionedCall/model_2/tf.math.multiply_95/Mul", "op": "Mul", "input": ["PartitionedCall/model_2/tf.math.add_46/Add", "PartitionedCall/model_2/tf.math.sigmoid_28/Sigmoid"], "attr": {"T": {"type": "DT_FLOAT"}}}, {"name": "PartitionedCall/model_2/tf.math.add_48/Add", "op": "AddV2", "input": ["PartitionedCall/model_2/tf.math.add_44/Add", "PartitionedCall/model_2/tf.math.multiply_95/Mul"], "attr": {"T": {"type": "DT_FLOAT"}}}, {"name": "PartitionedCall/model_2/tf.concat_2/concat", "op": "ConcatV2", "input": ["PartitionedCall/model_2/tf.strided_slice_9/StridedSlice", "PartitionedCall/model_2/tf.strided_slice_11/StridedSlice", "PartitionedCall/model_2/tf.math.add_36/Add", "PartitionedCall/model_2/tf.math.add_40/Add", "PartitionedCall/model_2/tf.math.add_44/Add", "PartitionedCall/model_2/tf.math.add_48/Add", "PartitionedCall/model_2/tf.concat_2/concat/axis"], "attr": {"Tidx": {"type": "DT_INT32"}, "T": {"type": "DT_FLOAT"}, "N": {"i": "6"}}}, {"name": "PartitionedCall/model_2/tf.nn.convolution_29/convolution", "op": "Conv2D", "input": ["PartitionedCall/model_2/tf.concat_2/concat", "1338"], "device": "/device:CPU:0", "attr": {"use_cudnn_on_gpu": {"b": true}, "dilations": {"list": {"i": ["1", "1", "1", "1"]}}, "T": {"type": "DT_FLOAT"}, "data_format": {"s": "TkhXQw=="}, "explicit_paddings": {"list": {}}, "strides": {"list": {"i": ["1", "1", "1", "1"]}}, "padding": {"s": "U0FNRQ=="}}}, {"name": "PartitionedCall/model_2/tf.math.add_49/Add", "op": "AddV2", "input": ["PartitionedCall/model_2/tf.nn.convolution_29/convolution", "1340"], "attr": {"T": {"type": "DT_FLOAT"}}}, {"name": "PartitionedCall/model_2/tf.math.sigmoid_29/Sigmoid", "op": "Sigmoid", "input": ["PartitionedCall/model_2/tf.math.add_49/Add"], "attr": {"T": {"type": "DT_FLOAT"}}}, {"name": "PartitionedCall/model_2/tf.math.multiply_99/Mul", "op": "Mul", "input": ["PartitionedCall/model_2/tf.math.add_49/Add", "PartitionedCall/model_2/tf.math.sigmoid_29/Sigmoid"], "attr": {"T": {"type": "DT_FLOAT"}}}, {"name": "PartitionedCall/model_2/tf.compat.v1.pad_4/Pad", "op": "Pad", "input": ["PartitionedCall/model_2/tf.math.multiply_99/Mul", "1342"], "attr": {"T": {"type": "DT_FLOAT"}, "Tpaddings": {"type": "DT_INT32"}}}, {"name": "PartitionedCall/model_2/tf.nn.convolution_30/convolution", "op": "Conv2D", "input": ["PartitionedCall/model_2/tf.compat.v1.pad_4/Pad", "1344"], "device": "/device:CPU:0", "attr": {"use_cudnn_on_gpu": {"b": true}, "strides": {"list": {"i": ["1", "2", "2", "1"]}}, "padding": {"s": "VkFMSUQ="}, "dilations": {"list": {"i": ["1", "1", "1", "1"]}}, "explicit_paddings": {"list": {}}, "data_format": {"s": "TkhXQw=="}, "T": {"type": "DT_FLOAT"}}}, {"name": "PartitionedCall/model_2/tf.math.add_50/Add", "op": "AddV2", "input": ["PartitionedCall/model_2/tf.nn.convolution_30/convolution", "1346"], "attr": {"T": {"type": "DT_FLOAT"}}}, {"name": "PartitionedCall/model_2/tf.math.sigmoid_30/Sigmoid", "op": "Sigmoid", "input": ["PartitionedCall/model_2/tf.math.add_50/Add"], "attr": {"T": {"type": "DT_FLOAT"}}}, {"name": "PartitionedCall/model_2/tf.math.multiply_102/Mul", "op": "Mul", "input": ["PartitionedCall/model_2/tf.math.add_50/Add", "PartitionedCall/model_2/tf.math.sigmoid_30/Sigmoid"], "attr": {"T": {"type": "DT_FLOAT"}}}, {"name": "PartitionedCall/model_2/tf.nn.convolution_31/convolution", "op": "Conv2D", "input": ["PartitionedCall/model_2/tf.math.multiply_102/Mul", "1348"], "device": "/device:CPU:0", "attr": {"data_format": {"s": "TkhXQw=="}, "explicit_paddings": {"list": {}}, "padding": {"s": "U0FNRQ=="}, "strides": {"list": {"i": ["1", "1", "1", "1"]}}, "use_cudnn_on_gpu": {"b": true}, "T": {"type": "DT_FLOAT"}, "dilations": {"list": {"i": ["1", "1", "1", "1"]}}}}, {"name": "PartitionedCall/model_2/tf.math.add_51/Add", "op": "AddV2", "input": ["PartitionedCall/model_2/tf.nn.convolution_31/convolution", "1350"], "attr": {"T": {"type": "DT_FLOAT"}}}, {"name": "PartitionedCall/model_2/tf.math.sigmoid_31/Sigmoid", "op": "Sigmoid", "input": ["PartitionedCall/model_2/tf.math.add_51/Add"], "attr": {"T": {"type": "DT_FLOAT"}}}, {"name": "PartitionedCall/model_2/tf.math.multiply_105/Mul", "op": "Mul", "input": ["PartitionedCall/model_2/tf.math.add_51/Add", "PartitionedCall/model_2/tf.math.sigmoid_31/Sigmoid"], "attr": {"T": {"type": "DT_FLOAT"}}}, {"name": "PartitionedCall/model_2/tf.strided_slice_13/StridedSlice", "op": "StridedSlice", "input": ["PartitionedCall/model_2/tf.math.multiply_105/Mul", "1372", "1374", "PartitionedCall/model_2/tf.strided_slice_13/ones_like"], "attr": {"new_axis_mask": {"i": "0"}, "shrink_axis_mask": {"i": "0"}, "T": {"type": "DT_FLOAT"}, "end_mask": {"i": "7"}, "ellipsis_mask": {"i": "0"}, "Index": {"type": "DT_INT64"}, "begin_mask": {"i": "15"}}}, {"name": "PartitionedCall/model_2/tf.strided_slice_15/StridedSlice", "op": "StridedSlice", "input": ["PartitionedCall/model_2/tf.math.multiply_105/Mul", "1352", "1354", "PartitionedCall/model_2/tf.strided_slice_15/ones_like"], "attr": {"ellipsis_mask": {"i": "0"}, "Index": {"type": "DT_INT64"}, "begin_mask": {"i": "7"}, "end_mask": {"i": "7"}, "new_axis_mask": {"i": "0"}, "T": {"type": "DT_FLOAT"}, "shrink_axis_mask": {"i": "0"}}}, {"name": "PartitionedCall/model_2/tf.nn.convolution_32/convolution", "op": "Conv2D", "input": ["PartitionedCall/model_2/tf.strided_slice_15/StridedSlice", "1356"], "device": "/device:CPU:0", "attr": {"T": {"type": "DT_FLOAT"}, "strides": {"list": {"i": ["1", "1", "1", "1"]}}, "use_cudnn_on_gpu": {"b": true}, "data_format": {"s": "TkhXQw=="}, "padding": {"s": "U0FNRQ=="}, "dilations": {"list": {"i": ["1", "1", "1", "1"]}}, "explicit_paddings": {"list": {}}}}, {"name": "PartitionedCall/model_2/tf.math.add_52/Add", "op": "AddV2", "input": ["PartitionedCall/model_2/tf.nn.convolution_32/convolution", "1358"], "attr": {"T": {"type": "DT_FLOAT"}}}, {"name": "PartitionedCall/model_2/tf.math.sigmoid_32/Sigmoid", "op": "Sigmoid", "input": ["PartitionedCall/model_2/tf.math.add_52/Add"], "attr": {"T": {"type": "DT_FLOAT"}}}, {"name": "PartitionedCall/model_2/tf.math.multiply_108/Mul", "op": "Mul", "input": ["PartitionedCall/model_2/tf.math.add_52/Add", "PartitionedCall/model_2/tf.math.sigmoid_32/Sigmoid"], "attr": {"T": {"type": "DT_FLOAT"}}}, {"name": "PartitionedCall/model_2/tf.nn.convolution_33/convolution", "op": "Conv2D", "input": ["PartitionedCall/model_2/tf.math.multiply_108/Mul", "1360"], "device": "/device:CPU:0", "attr": {"data_format": {"s": "TkhXQw=="}, "explicit_paddings": {"list": {}}, "padding": {"s": "U0FNRQ=="}, "T": {"type": "DT_FLOAT"}, "strides": {"list": {"i": ["1", "1", "1", "1"]}}, "dilations": {"list": {"i": ["1", "1", "1", "1"]}}, "use_cudnn_on_gpu": {"b": true}}}, {"name": "PartitionedCall/model_2/tf.math.add_53/Add", "op": "AddV2", "input": ["PartitionedCall/model_2/tf.nn.convolution_33/convolution", "1362"], "attr": {"T": {"type": "DT_FLOAT"}}}, {"name": "PartitionedCall/model_2/tf.math.sigmoid_33/Sigmoid", "op": "Sigmoid", "input": ["PartitionedCall/model_2/tf.math.add_53/Add"], "attr": {"T": {"type": "DT_FLOAT"}}}, {"name": "PartitionedCall/model_2/tf.math.multiply_111/Mul", "op": "Mul", "input": ["PartitionedCall/model_2/tf.math.add_53/Add", "PartitionedCall/model_2/tf.math.sigmoid_33/Sigmoid"], "attr": {"T": {"type": "DT_FLOAT"}}}, {"name": "PartitionedCall/model_2/tf.math.add_55/Add", "op": "AddV2", "input": ["PartitionedCall/model_2/tf.strided_slice_15/StridedSlice", "PartitionedCall/model_2/tf.math.multiply_111/Mul"], "attr": {"T": {"type": "DT_FLOAT"}}}, {"name": "PartitionedCall/model_2/tf.nn.convolution_34/convolution", "op": "Conv2D", "input": ["PartitionedCall/model_2/tf.math.add_55/Add", "1364"], "device": "/device:CPU:0", "attr": {"strides": {"list": {"i": ["1", "1", "1", "1"]}}, "padding": {"s": "U0FNRQ=="}, "T": {"type": "DT_FLOAT"}, "dilations": {"list": {"i": ["1", "1", "1", "1"]}}, "data_format": {"s": "TkhXQw=="}, "explicit_paddings": {"list": {}}, "use_cudnn_on_gpu": {"b": true}}}, {"name": "PartitionedCall/model_2/tf.math.add_56/Add", "op": "AddV2", "input": ["PartitionedCall/model_2/tf.nn.convolution_34/convolution", "1366"], "attr": {"T": {"type": "DT_FLOAT"}}}, {"name": "PartitionedCall/model_2/tf.math.sigmoid_34/Sigmoid", "op": "Sigmoid", "input": ["PartitionedCall/model_2/tf.math.add_56/Add"], "attr": {"T": {"type": "DT_FLOAT"}}}, {"name": "PartitionedCall/model_2/tf.math.multiply_115/Mul", "op": "Mul", "input": ["PartitionedCall/model_2/tf.math.add_56/Add", "PartitionedCall/model_2/tf.math.sigmoid_34/Sigmoid"], "attr": {"T": {"type": "DT_FLOAT"}}}, {"name": "PartitionedCall/model_2/tf.nn.convolution_35/convolution", "op": "Conv2D", "input": ["PartitionedCall/model_2/tf.math.multiply_115/Mul", "1368"], "device": "/device:CPU:0", "attr": {"T": {"type": "DT_FLOAT"}, "explicit_paddings": {"list": {}}, "data_format": {"s": "TkhXQw=="}, "padding": {"s": "U0FNRQ=="}, "use_cudnn_on_gpu": {"b": true}, "strides": {"list": {"i": ["1", "1", "1", "1"]}}, "dilations": {"list": {"i": ["1", "1", "1", "1"]}}}}, {"name": "PartitionedCall/model_2/tf.math.add_57/Add", "op": "AddV2", "input": ["PartitionedCall/model_2/tf.nn.convolution_35/convolution", "1370"], "attr": {"T": {"type": "DT_FLOAT"}}}, {"name": "PartitionedCall/model_2/tf.math.sigmoid_35/Sigmoid", "op": "Sigmoid", "input": ["PartitionedCall/model_2/tf.math.add_57/Add"], "attr": {"T": {"type": "DT_FLOAT"}}}, {"name": "PartitionedCall/model_2/tf.math.multiply_118/Mul", "op": "Mul", "input": ["PartitionedCall/model_2/tf.math.add_57/Add", "PartitionedCall/model_2/tf.math.sigmoid_35/Sigmoid"], "attr": {"T": {"type": "DT_FLOAT"}}}, {"name": "PartitionedCall/model_2/tf.math.add_59/Add", "op": "AddV2", "input": ["PartitionedCall/model_2/tf.math.add_55/Add", "PartitionedCall/model_2/tf.math.multiply_118/Mul"], "attr": {"T": {"type": "DT_FLOAT"}}}, {"name": "PartitionedCall/model_2/tf.concat_3/concat", "op": "ConcatV2", "input": ["PartitionedCall/model_2/tf.strided_slice_13/StridedSlice", "PartitionedCall/model_2/tf.strided_slice_15/StridedSlice", "PartitionedCall/model_2/tf.math.add_55/Add", "PartitionedCall/model_2/tf.math.add_59/Add", "PartitionedCall/model_2/tf.concat_3/concat/axis"], "attr": {"N": {"i": "4"}, "Tidx": {"type": "DT_INT32"}, "T": {"type": "DT_FLOAT"}}}, {"name": "PartitionedCall/model_2/tf.nn.convolution_36/convolution", "op": "Conv2D", "input": ["PartitionedCall/model_2/tf.concat_3/concat", "1376"], "device": "/device:CPU:0", "attr": {"padding": {"s": "U0FNRQ=="}, "T": {"type": "DT_FLOAT"}, "explicit_paddings": {"list": {}}, "strides": {"list": {"i": ["1", "1", "1", "1"]}}, "use_cudnn_on_gpu": {"b": true}, "data_format": {"s": "TkhXQw=="}, "dilations": {"list": {"i": ["1", "1", "1", "1"]}}}}, {"name": "PartitionedCall/model_2/tf.math.add_60/Add", "op": "AddV2", "input": ["PartitionedCall/model_2/tf.nn.convolution_36/convolution", "1378"], "attr": {"T": {"type": "DT_FLOAT"}}}, {"name": "PartitionedCall/model_2/tf.math.sigmoid_36/Sigmoid", "op": "Sigmoid", "input": ["PartitionedCall/model_2/tf.math.add_60/Add"], "attr": {"T": {"type": "DT_FLOAT"}}}, {"name": "PartitionedCall/model_2/tf.math.multiply_122/Mul", "op": "Mul", "input": ["PartitionedCall/model_2/tf.math.add_60/Add", "PartitionedCall/model_2/tf.math.sigmoid_36/Sigmoid"], "attr": {"T": {"type": "DT_FLOAT"}}}, {"name": "PartitionedCall/model_2/tf.nn.convolution_37/convolution", "op": "Conv2D", "input": ["PartitionedCall/model_2/tf.math.multiply_122/Mul", "1380"], "device": "/device:CPU:0", "attr": {"dilations": {"list": {"i": ["1", "1", "1", "1"]}}, "data_format": {"s": "TkhXQw=="}, "padding": {"s": "U0FNRQ=="}, "explicit_paddings": {"list": {}}, "use_cudnn_on_gpu": {"b": true}, "T": {"type": "DT_FLOAT"}, "strides": {"list": {"i": ["1", "1", "1", "1"]}}}}, {"name": "PartitionedCall/model_2/tf.math.add_61/Add", "op": "AddV2", "input": ["PartitionedCall/model_2/tf.nn.convolution_37/convolution", "1382"], "attr": {"T": {"type": "DT_FLOAT"}}}, {"name": "PartitionedCall/model_2/tf.math.sigmoid_37/Sigmoid", "op": "Sigmoid", "input": ["PartitionedCall/model_2/tf.math.add_61/Add"], "attr": {"T": {"type": "DT_FLOAT"}}}, {"name": "PartitionedCall/model_2/tf.math.multiply_125/Mul", "op": "Mul", "input": ["PartitionedCall/model_2/tf.math.add_61/Add", "PartitionedCall/model_2/tf.math.sigmoid_37/Sigmoid"], "attr": {"T": {"type": "DT_FLOAT"}}}, {"name": "PartitionedCall/model_2/tf.compat.v1.nn.pool/max_pool", "op": "MaxPool", "input": ["PartitionedCall/model_2/tf.math.multiply_125/Mul"], "attr": {"ksize": {"list": {"i": ["1", "5", "5", "1"]}}, "strides": {"list": {"i": ["1", "1", "1", "1"]}}, "data_format": {"s": "TkhXQw=="}, "explicit_paddings": {"list": {}}, "T": {"type": "DT_FLOAT"}, "padding": {"s": "U0FNRQ=="}}}, {"name": "PartitionedCall/model_2/tf.compat.v1.nn.pool_1/max_pool", "op": "MaxPool", "input": ["PartitionedCall/model_2/tf.compat.v1.nn.pool/max_pool"], "attr": {"padding": {"s": "U0FNRQ=="}, "strides": {"list": {"i": ["1", "1", "1", "1"]}}, "explicit_paddings": {"list": {}}, "data_format": {"s": "TkhXQw=="}, "ksize": {"list": {"i": ["1", "5", "5", "1"]}}, "T": {"type": "DT_FLOAT"}}}, {"name": "PartitionedCall/model_2/tf.compat.v1.nn.pool_2/max_pool", "op": "MaxPool", "input": ["PartitionedCall/model_2/tf.compat.v1.nn.pool_1/max_pool"], "attr": {"padding": {"s": "U0FNRQ=="}, "strides": {"list": {"i": ["1", "1", "1", "1"]}}, "explicit_paddings": {"list": {}}, "T": {"type": "DT_FLOAT"}, "data_format": {"s": "TkhXQw=="}, "ksize": {"list": {"i": ["1", "5", "5", "1"]}}}}, {"name": "PartitionedCall/model_2/tf.concat_4/concat", "op": "ConcatV2", "input": ["PartitionedCall/model_2/tf.math.multiply_125/Mul", "PartitionedCall/model_2/tf.compat.v1.nn.pool/max_pool", "PartitionedCall/model_2/tf.compat.v1.nn.pool_1/max_pool", "PartitionedCall/model_2/tf.compat.v1.nn.pool_2/max_pool", "PartitionedCall/model_2/tf.concat_4/concat/axis"], "attr": {"N": {"i": "4"}, "T": {"type": "DT_FLOAT"}, "Tidx": {"type": "DT_INT32"}}}, {"name": "PartitionedCall/model_2/tf.nn.convolution_38/convolution", "op": "Conv2D", "input": ["PartitionedCall/model_2/tf.concat_4/concat", "1384"], "device": "/device:CPU:0", "attr": {"data_format": {"s": "TkhXQw=="}, "dilations": {"list": {"i": ["1", "1", "1", "1"]}}, "use_cudnn_on_gpu": {"b": true}, "strides": {"list": {"i": ["1", "1", "1", "1"]}}, "explicit_paddings": {"list": {}}, "T": {"type": "DT_FLOAT"}, "padding": {"s": "U0FNRQ=="}}}, {"name": "PartitionedCall/model_2/tf.math.add_62/Add", "op": "AddV2", "input": ["PartitionedCall/model_2/tf.nn.convolution_38/convolution", "1386"], "attr": {"T": {"type": "DT_FLOAT"}}}, {"name": "PartitionedCall/model_2/tf.math.sigmoid_38/Sigmoid", "op": "Sigmoid", "input": ["PartitionedCall/model_2/tf.math.add_62/Add"], "attr": {"T": {"type": "DT_FLOAT"}}}, {"name": "PartitionedCall/model_2/tf.math.multiply_128/Mul", "op": "Mul", "input": ["PartitionedCall/model_2/tf.math.add_62/Add", "PartitionedCall/model_2/tf.math.sigmoid_38/Sigmoid"], "attr": {"T": {"type": "DT_FLOAT"}}}, {"name": "PartitionedCall/model_2/lambda//model.10/Resize", "op": "ResizeNearestNeighbor", "input": ["PartitionedCall/model_2/tf.math.multiply_128/Mul", "PartitionedCall/model_2/lambda//model.10/Resize/size"], "attr": {"align_corners": {"b": false}, "half_pixel_centers": {"b": false}, "T": {"type": "DT_FLOAT"}}}, {"name": "PartitionedCall/model_2/tf.concat_5/concat", "op": "ConcatV2", "input": ["PartitionedCall/model_2/lambda//model.10/Resize", "PartitionedCall/model_2/tf.math.multiply_99/Mul", "PartitionedCall/model_2/tf.concat_5/concat/axis"], "attr": {"T": {"type": "DT_FLOAT"}, "Tidx": {"type": "DT_INT32"}, "N": {"i": "2"}}}, {"name": "PartitionedCall/model_2/tf.nn.convolution_39/convolution", "op": "Conv2D", "input": ["PartitionedCall/model_2/tf.concat_5/concat", "1388"], "device": "/device:CPU:0", "attr": {"T": {"type": "DT_FLOAT"}, "explicit_paddings": {"list": {}}, "dilations": {"list": {"i": ["1", "1", "1", "1"]}}, "data_format": {"s": "TkhXQw=="}, "strides": {"list": {"i": ["1", "1", "1", "1"]}}, "padding": {"s": "U0FNRQ=="}, "use_cudnn_on_gpu": {"b": true}}}, {"name": "PartitionedCall/model_2/tf.math.add_63/Add", "op": "AddV2", "input": ["PartitionedCall/model_2/tf.nn.convolution_39/convolution", "1390"], "attr": {"T": {"type": "DT_FLOAT"}}}, {"name": "PartitionedCall/model_2/tf.math.sigmoid_39/Sigmoid", "op": "Sigmoid", "input": ["PartitionedCall/model_2/tf.math.add_63/Add"], "attr": {"T": {"type": "DT_FLOAT"}}}, {"name": "PartitionedCall/model_2/tf.math.multiply_131/Mul", "op": "Mul", "input": ["PartitionedCall/model_2/tf.math.add_63/Add", "PartitionedCall/model_2/tf.math.sigmoid_39/Sigmoid"], "attr": {"T": {"type": "DT_FLOAT"}}}, {"name": "PartitionedCall/model_2/tf.strided_slice_17/StridedSlice", "op": "StridedSlice", "input": ["PartitionedCall/model_2/tf.math.multiply_131/Mul", "1412", "1414", "PartitionedCall/model_2/tf.strided_slice_17/ones_like"], "attr": {"Index": {"type": "DT_INT64"}, "shrink_axis_mask": {"i": "0"}, "end_mask": {"i": "7"}, "new_axis_mask": {"i": "0"}, "begin_mask": {"i": "15"}, "ellipsis_mask": {"i": "0"}, "T": {"type": "DT_FLOAT"}}}, {"name": "PartitionedCall/model_2/tf.strided_slice_19/StridedSlice", "op": "StridedSlice", "input": ["PartitionedCall/model_2/tf.math.multiply_131/Mul", "1392", "1394", "PartitionedCall/model_2/tf.strided_slice_19/ones_like"], "attr": {"Index": {"type": "DT_INT64"}, "end_mask": {"i": "7"}, "T": {"type": "DT_FLOAT"}, "shrink_axis_mask": {"i": "0"}, "new_axis_mask": {"i": "0"}, "ellipsis_mask": {"i": "0"}, "begin_mask": {"i": "7"}}}, {"name": "PartitionedCall/model_2/tf.nn.convolution_40/convolution", "op": "Conv2D", "input": ["PartitionedCall/model_2/tf.strided_slice_19/StridedSlice", "1396"], "device": "/device:CPU:0", "attr": {"strides": {"list": {"i": ["1", "1", "1", "1"]}}, "padding": {"s": "U0FNRQ=="}, "explicit_paddings": {"list": {}}, "dilations": {"list": {"i": ["1", "1", "1", "1"]}}, "data_format": {"s": "TkhXQw=="}, "use_cudnn_on_gpu": {"b": true}, "T": {"type": "DT_FLOAT"}}}, {"name": "PartitionedCall/model_2/tf.math.add_64/Add", "op": "AddV2", "input": ["PartitionedCall/model_2/tf.nn.convolution_40/convolution", "1398"], "attr": {"T": {"type": "DT_FLOAT"}}}, {"name": "PartitionedCall/model_2/tf.math.sigmoid_40/Sigmoid", "op": "Sigmoid", "input": ["PartitionedCall/model_2/tf.math.add_64/Add"], "attr": {"T": {"type": "DT_FLOAT"}}}, {"name": "PartitionedCall/model_2/tf.math.multiply_134/Mul", "op": "Mul", "input": ["PartitionedCall/model_2/tf.math.add_64/Add", "PartitionedCall/model_2/tf.math.sigmoid_40/Sigmoid"], "attr": {"T": {"type": "DT_FLOAT"}}}, {"name": "PartitionedCall/model_2/tf.nn.convolution_41/convolution", "op": "Conv2D", "input": ["PartitionedCall/model_2/tf.math.multiply_134/Mul", "1400"], "device": "/device:CPU:0", "attr": {"use_cudnn_on_gpu": {"b": true}, "strides": {"list": {"i": ["1", "1", "1", "1"]}}, "T": {"type": "DT_FLOAT"}, "explicit_paddings": {"list": {}}, "dilations": {"list": {"i": ["1", "1", "1", "1"]}}, "padding": {"s": "U0FNRQ=="}, "data_format": {"s": "TkhXQw=="}}}, {"name": "PartitionedCall/model_2/tf.math.add_65/Add", "op": "AddV2", "input": ["PartitionedCall/model_2/tf.nn.convolution_41/convolution", "1402"], "attr": {"T": {"type": "DT_FLOAT"}}}, {"name": "PartitionedCall/model_2/tf.math.sigmoid_41/Sigmoid", "op": "Sigmoid", "input": ["PartitionedCall/model_2/tf.math.add_65/Add"], "attr": {"T": {"type": "DT_FLOAT"}}}, {"name": "PartitionedCall/model_2/tf.math.multiply_137/Mul", "op": "Mul", "input": ["PartitionedCall/model_2/tf.math.add_65/Add", "PartitionedCall/model_2/tf.math.sigmoid_41/Sigmoid"], "attr": {"T": {"type": "DT_FLOAT"}}}, {"name": "PartitionedCall/model_2/tf.nn.convolution_42/convolution", "op": "Conv2D", "input": ["PartitionedCall/model_2/tf.math.multiply_137/Mul", "1404"], "device": "/device:CPU:0", "attr": {"T": {"type": "DT_FLOAT"}, "explicit_paddings": {"list": {}}, "data_format": {"s": "TkhXQw=="}, "strides": {"list": {"i": ["1", "1", "1", "1"]}}, "use_cudnn_on_gpu": {"b": true}, "dilations": {"list": {"i": ["1", "1", "1", "1"]}}, "padding": {"s": "U0FNRQ=="}}}, {"name": "PartitionedCall/model_2/tf.math.add_66/Add", "op": "AddV2", "input": ["PartitionedCall/model_2/tf.nn.convolution_42/convolution", "1406"], "attr": {"T": {"type": "DT_FLOAT"}}}, {"name": "PartitionedCall/model_2/tf.math.sigmoid_42/Sigmoid", "op": "Sigmoid", "input": ["PartitionedCall/model_2/tf.math.add_66/Add"], "attr": {"T": {"type": "DT_FLOAT"}}}, {"name": "PartitionedCall/model_2/tf.math.multiply_140/Mul", "op": "Mul", "input": ["PartitionedCall/model_2/tf.math.add_66/Add", "PartitionedCall/model_2/tf.math.sigmoid_42/Sigmoid"], "attr": {"T": {"type": "DT_FLOAT"}}}, {"name": "PartitionedCall/model_2/tf.nn.convolution_43/convolution", "op": "Conv2D", "input": ["PartitionedCall/model_2/tf.math.multiply_140/Mul", "1408"], "device": "/device:CPU:0", "attr": {"T": {"type": "DT_FLOAT"}, "explicit_paddings": {"list": {}}, "strides": {"list": {"i": ["1", "1", "1", "1"]}}, "data_format": {"s": "TkhXQw=="}, "dilations": {"list": {"i": ["1", "1", "1", "1"]}}, "padding": {"s": "U0FNRQ=="}, "use_cudnn_on_gpu": {"b": true}}}, {"name": "PartitionedCall/model_2/tf.math.add_67/Add", "op": "AddV2", "input": ["PartitionedCall/model_2/tf.nn.convolution_43/convolution", "1410"], "attr": {"T": {"type": "DT_FLOAT"}}}, {"name": "PartitionedCall/model_2/tf.math.sigmoid_43/Sigmoid", "op": "Sigmoid", "input": ["PartitionedCall/model_2/tf.math.add_67/Add"], "attr": {"T": {"type": "DT_FLOAT"}}}, {"name": "PartitionedCall/model_2/tf.math.multiply_143/Mul", "op": "Mul", "input": ["PartitionedCall/model_2/tf.math.add_67/Add", "PartitionedCall/model_2/tf.math.sigmoid_43/Sigmoid"], "attr": {"T": {"type": "DT_FLOAT"}}}, {"name": "PartitionedCall/model_2/tf.concat_6/concat", "op": "ConcatV2", "input": ["PartitionedCall/model_2/tf.strided_slice_17/StridedSlice", "PartitionedCall/model_2/tf.strided_slice_19/StridedSlice", "PartitionedCall/model_2/tf.math.multiply_137/Mul", "PartitionedCall/model_2/tf.math.multiply_143/Mul", "PartitionedCall/model_2/tf.concat_6/concat/axis"], "attr": {"T": {"type": "DT_FLOAT"}, "N": {"i": "4"}, "Tidx": {"type": "DT_INT32"}}}, {"name": "PartitionedCall/model_2/tf.nn.convolution_44/convolution", "op": "Conv2D", "input": ["PartitionedCall/model_2/tf.concat_6/concat", "1416"], "device": "/device:CPU:0", "attr": {"padding": {"s": "U0FNRQ=="}, "explicit_paddings": {"list": {}}, "use_cudnn_on_gpu": {"b": true}, "data_format": {"s": "TkhXQw=="}, "strides": {"list": {"i": ["1", "1", "1", "1"]}}, "T": {"type": "DT_FLOAT"}, "dilations": {"list": {"i": ["1", "1", "1", "1"]}}}}, {"name": "PartitionedCall/model_2/tf.math.add_68/Add", "op": "AddV2", "input": ["PartitionedCall/model_2/tf.nn.convolution_44/convolution", "1418"], "attr": {"T": {"type": "DT_FLOAT"}}}, {"name": "PartitionedCall/model_2/tf.math.sigmoid_44/Sigmoid", "op": "Sigmoid", "input": ["PartitionedCall/model_2/tf.math.add_68/Add"], "attr": {"T": {"type": "DT_FLOAT"}}}, {"name": "PartitionedCall/model_2/tf.math.multiply_146/Mul", "op": "Mul", "input": ["PartitionedCall/model_2/tf.math.add_68/Add", "PartitionedCall/model_2/tf.math.sigmoid_44/Sigmoid"], "attr": {"T": {"type": "DT_FLOAT"}}}, {"name": "PartitionedCall/model_2/lambda_1//model.13/Resize", "op": "ResizeNearestNeighbor", "input": ["PartitionedCall/model_2/tf.math.multiply_146/Mul", "PartitionedCall/model_2/lambda_1//model.13/Resize/size"], "attr": {"T": {"type": "DT_FLOAT"}, "align_corners": {"b": false}, "half_pixel_centers": {"b": false}}}, {"name": "PartitionedCall/model_2/tf.concat_7/concat", "op": "ConcatV2", "input": ["PartitionedCall/model_2/lambda_1//model.13/Resize", "PartitionedCall/model_2/tf.math.multiply_62/Mul", "PartitionedCall/model_2/tf.concat_7/concat/axis"], "attr": {"N": {"i": "2"}, "T": {"type": "DT_FLOAT"}, "Tidx": {"type": "DT_INT32"}}}, {"name": "PartitionedCall/model_2/tf.nn.convolution_45/convolution", "op": "Conv2D", "input": ["PartitionedCall/model_2/tf.concat_7/concat", "1420"], "device": "/device:CPU:0", "attr": {"padding": {"s": "U0FNRQ=="}, "dilations": {"list": {"i": ["1", "1", "1", "1"]}}, "use_cudnn_on_gpu": {"b": true}, "explicit_paddings": {"list": {}}, "data_format": {"s": "TkhXQw=="}, "T": {"type": "DT_FLOAT"}, "strides": {"list": {"i": ["1", "1", "1", "1"]}}}}, {"name": "PartitionedCall/model_2/tf.math.add_69/Add", "op": "AddV2", "input": ["PartitionedCall/model_2/tf.nn.convolution_45/convolution", "1422"], "attr": {"T": {"type": "DT_FLOAT"}}}, {"name": "PartitionedCall/model_2/tf.math.sigmoid_45/Sigmoid", "op": "Sigmoid", "input": ["PartitionedCall/model_2/tf.math.add_69/Add"], "attr": {"T": {"type": "DT_FLOAT"}}}, {"name": "PartitionedCall/model_2/tf.math.multiply_149/Mul", "op": "Mul", "input": ["PartitionedCall/model_2/tf.math.add_69/Add", "PartitionedCall/model_2/tf.math.sigmoid_45/Sigmoid"], "attr": {"T": {"type": "DT_FLOAT"}}}, {"name": "PartitionedCall/model_2/tf.strided_slice_21/StridedSlice", "op": "StridedSlice", "input": ["PartitionedCall/model_2/tf.math.multiply_149/Mul", "1444", "1446", "PartitionedCall/model_2/tf.strided_slice_21/ones_like"], "attr": {"new_axis_mask": {"i": "0"}, "shrink_axis_mask": {"i": "0"}, "end_mask": {"i": "7"}, "Index": {"type": "DT_INT64"}, "begin_mask": {"i": "15"}, "T": {"type": "DT_FLOAT"}, "ellipsis_mask": {"i": "0"}}}, {"name": "PartitionedCall/model_2/tf.strided_slice_23/StridedSlice", "op": "StridedSlice", "input": ["PartitionedCall/model_2/tf.math.multiply_149/Mul", "1424", "1426", "PartitionedCall/model_2/tf.strided_slice_23/ones_like"], "attr": {"ellipsis_mask": {"i": "0"}, "shrink_axis_mask": {"i": "0"}, "Index": {"type": "DT_INT64"}, "end_mask": {"i": "7"}, "begin_mask": {"i": "7"}, "T": {"type": "DT_FLOAT"}, "new_axis_mask": {"i": "0"}}}, {"name": "PartitionedCall/model_2/tf.nn.convolution_46/convolution", "op": "Conv2D", "input": ["PartitionedCall/model_2/tf.strided_slice_23/StridedSlice", "1428"], "device": "/device:CPU:0", "attr": {"T": {"type": "DT_FLOAT"}, "dilations": {"list": {"i": ["1", "1", "1", "1"]}}, "data_format": {"s": "TkhXQw=="}, "explicit_paddings": {"list": {}}, "strides": {"list": {"i": ["1", "1", "1", "1"]}}, "padding": {"s": "U0FNRQ=="}, "use_cudnn_on_gpu": {"b": true}}}, {"name": "PartitionedCall/model_2/tf.math.add_70/Add", "op": "AddV2", "input": ["PartitionedCall/model_2/tf.nn.convolution_46/convolution", "1430"], "attr": {"T": {"type": "DT_FLOAT"}}}, {"name": "PartitionedCall/model_2/tf.math.sigmoid_46/Sigmoid", "op": "Sigmoid", "input": ["PartitionedCall/model_2/tf.math.add_70/Add"], "attr": {"T": {"type": "DT_FLOAT"}}}, {"name": "PartitionedCall/model_2/tf.math.multiply_152/Mul", "op": "Mul", "input": ["PartitionedCall/model_2/tf.math.add_70/Add", "PartitionedCall/model_2/tf.math.sigmoid_46/Sigmoid"], "attr": {"T": {"type": "DT_FLOAT"}}}, {"name": "PartitionedCall/model_2/tf.nn.convolution_47/convolution", "op": "Conv2D", "input": ["PartitionedCall/model_2/tf.math.multiply_152/Mul", "1432"], "device": "/device:CPU:0", "attr": {"T": {"type": "DT_FLOAT"}, "use_cudnn_on_gpu": {"b": true}, "dilations": {"list": {"i": ["1", "1", "1", "1"]}}, "data_format": {"s": "TkhXQw=="}, "strides": {"list": {"i": ["1", "1", "1", "1"]}}, "padding": {"s": "U0FNRQ=="}, "explicit_paddings": {"list": {}}}}, {"name": "PartitionedCall/model_2/tf.math.add_71/Add", "op": "AddV2", "input": ["PartitionedCall/model_2/tf.nn.convolution_47/convolution", "1434"], "attr": {"T": {"type": "DT_FLOAT"}}}, {"name": "PartitionedCall/model_2/tf.math.sigmoid_47/Sigmoid", "op": "Sigmoid", "input": ["PartitionedCall/model_2/tf.math.add_71/Add"], "attr": {"T": {"type": "DT_FLOAT"}}}, {"name": "PartitionedCall/model_2/tf.math.multiply_155/Mul", "op": "Mul", "input": ["PartitionedCall/model_2/tf.math.add_71/Add", "PartitionedCall/model_2/tf.math.sigmoid_47/Sigmoid"], "attr": {"T": {"type": "DT_FLOAT"}}}, {"name": "PartitionedCall/model_2/tf.nn.convolution_48/convolution", "op": "Conv2D", "input": ["PartitionedCall/model_2/tf.math.multiply_155/Mul", "1436"], "device": "/device:CPU:0", "attr": {"T": {"type": "DT_FLOAT"}, "explicit_paddings": {"list": {}}, "use_cudnn_on_gpu": {"b": true}, "data_format": {"s": "TkhXQw=="}, "padding": {"s": "U0FNRQ=="}, "dilations": {"list": {"i": ["1", "1", "1", "1"]}}, "strides": {"list": {"i": ["1", "1", "1", "1"]}}}}, {"name": "PartitionedCall/model_2/tf.math.add_72/Add", "op": "AddV2", "input": ["PartitionedCall/model_2/tf.nn.convolution_48/convolution", "1438"], "attr": {"T": {"type": "DT_FLOAT"}}}, {"name": "PartitionedCall/model_2/tf.math.sigmoid_48/Sigmoid", "op": "Sigmoid", "input": ["PartitionedCall/model_2/tf.math.add_72/Add"], "attr": {"T": {"type": "DT_FLOAT"}}}, {"name": "PartitionedCall/model_2/tf.math.multiply_158/Mul", "op": "Mul", "input": ["PartitionedCall/model_2/tf.math.add_72/Add", "PartitionedCall/model_2/tf.math.sigmoid_48/Sigmoid"], "attr": {"T": {"type": "DT_FLOAT"}}}, {"name": "PartitionedCall/model_2/tf.nn.convolution_49/convolution", "op": "Conv2D", "input": ["PartitionedCall/model_2/tf.math.multiply_158/Mul", "1440"], "device": "/device:CPU:0", "attr": {"data_format": {"s": "TkhXQw=="}, "T": {"type": "DT_FLOAT"}, "explicit_paddings": {"list": {}}, "dilations": {"list": {"i": ["1", "1", "1", "1"]}}, "strides": {"list": {"i": ["1", "1", "1", "1"]}}, "use_cudnn_on_gpu": {"b": true}, "padding": {"s": "U0FNRQ=="}}}, {"name": "PartitionedCall/model_2/tf.math.add_73/Add", "op": "AddV2", "input": ["PartitionedCall/model_2/tf.nn.convolution_49/convolution", "1442"], "attr": {"T": {"type": "DT_FLOAT"}}}, {"name": "PartitionedCall/model_2/tf.math.sigmoid_49/Sigmoid", "op": "Sigmoid", "input": ["PartitionedCall/model_2/tf.math.add_73/Add"], "attr": {"T": {"type": "DT_FLOAT"}}}, {"name": "PartitionedCall/model_2/tf.math.multiply_161/Mul", "op": "Mul", "input": ["PartitionedCall/model_2/tf.math.add_73/Add", "PartitionedCall/model_2/tf.math.sigmoid_49/Sigmoid"], "attr": {"T": {"type": "DT_FLOAT"}}}, {"name": "PartitionedCall/model_2/tf.concat_8/concat", "op": "ConcatV2", "input": ["PartitionedCall/model_2/tf.strided_slice_21/StridedSlice", "PartitionedCall/model_2/tf.strided_slice_23/StridedSlice", "PartitionedCall/model_2/tf.math.multiply_155/Mul", "PartitionedCall/model_2/tf.math.multiply_161/Mul", "PartitionedCall/model_2/tf.concat_8/concat/axis"], "attr": {"Tidx": {"type": "DT_INT32"}, "N": {"i": "4"}, "T": {"type": "DT_FLOAT"}}}, {"name": "PartitionedCall/model_2/tf.nn.convolution_50/convolution", "op": "Conv2D", "input": ["PartitionedCall/model_2/tf.concat_8/concat", "1448"], "device": "/device:CPU:0", "attr": {"explicit_paddings": {"list": {}}, "T": {"type": "DT_FLOAT"}, "dilations": {"list": {"i": ["1", "1", "1", "1"]}}, "padding": {"s": "U0FNRQ=="}, "use_cudnn_on_gpu": {"b": true}, "data_format": {"s": "TkhXQw=="}, "strides": {"list": {"i": ["1", "1", "1", "1"]}}}}, {"name": "PartitionedCall/model_2/tf.math.add_74/Add", "op": "AddV2", "input": ["PartitionedCall/model_2/tf.nn.convolution_50/convolution", "1450"], "attr": {"T": {"type": "DT_FLOAT"}}}, {"name": "PartitionedCall/model_2/tf.math.sigmoid_50/Sigmoid", "op": "Sigmoid", "input": ["PartitionedCall/model_2/tf.math.add_74/Add"], "attr": {"T": {"type": "DT_FLOAT"}}}, {"name": "PartitionedCall/model_2/tf.math.multiply_164/Mul", "op": "Mul", "input": ["PartitionedCall/model_2/tf.math.add_74/Add", "PartitionedCall/model_2/tf.math.sigmoid_50/Sigmoid"], "attr": {"T": {"type": "DT_FLOAT"}}}, {"name": "PartitionedCall/model_2/tf.nn.convolution_52/convolution", "op": "Conv2D", "input": ["PartitionedCall/model_2/tf.math.multiply_164/Mul", "1538"], "device": "/device:CPU:0", "attr": {"strides": {"list": {"i": ["1", "1", "1", "1"]}}, "use_cudnn_on_gpu": {"b": true}, "T": {"type": "DT_FLOAT"}, "padding": {"s": "U0FNRQ=="}, "explicit_paddings": {"list": {}}, "data_format": {"s": "TkhXQw=="}, "dilations": {"list": {"i": ["1", "1", "1", "1"]}}}}, {"name": "PartitionedCall/model_2/tf.nn.convolution_53/convolution", "op": "Conv2D", "input": ["PartitionedCall/model_2/tf.math.multiply_164/Mul", "1536"], "device": "/device:CPU:0", "attr": {"strides": {"list": {"i": ["1", "1", "1", "1"]}}, "padding": {"s": "U0FNRQ=="}, "data_format": {"s": "TkhXQw=="}, "explicit_paddings": {"list": {}}, "T": {"type": "DT_FLOAT"}, "use_cudnn_on_gpu": {"b": true}, "dilations": {"list": {"i": ["1", "1", "1", "1"]}}}}, {"name": "PartitionedCall/model_2/tf.compat.v1.pad_5/Pad", "op": "Pad", "input": ["PartitionedCall/model_2/tf.math.multiply_164/Mul", "1452"], "attr": {"T": {"type": "DT_FLOAT"}, "Tpaddings": {"type": "DT_INT32"}}}, {"name": "PartitionedCall/model_2/tf.math.add_76/Add", "op": "AddV2", "input": ["PartitionedCall/model_2/tf.nn.convolution_52/convolution", "1550"], "attr": {"T": {"type": "DT_FLOAT"}}}, {"name": "PartitionedCall/model_2/tf.math.add_77/Add", "op": "AddV2", "input": ["PartitionedCall/model_2/tf.nn.convolution_53/convolution", "1548"], "attr": {"T": {"type": "DT_FLOAT"}}}, {"name": "PartitionedCall/model_2/tf.nn.convolution_51/convolution", "op": "Conv2D", "input": ["PartitionedCall/model_2/tf.compat.v1.pad_5/Pad", "1454"], "device": "/device:CPU:0", "attr": {"padding": {"s": "VkFMSUQ="}, "data_format": {"s": "TkhXQw=="}, "T": {"type": "DT_FLOAT"}, "use_cudnn_on_gpu": {"b": true}, "strides": {"list": {"i": ["1", "2", "2", "1"]}}, "explicit_paddings": {"list": {}}, "dilations": {"list": {"i": ["1", "1", "1", "1"]}}}}, {"name": "PartitionedCall/model_2/tf.math.sigmoid_52/Sigmoid", "op": "Sigmoid", "input": ["PartitionedCall/model_2/tf.math.add_76/Add"], "attr": {"T": {"type": "DT_FLOAT"}}}, {"name": "PartitionedCall/model_2/tf.math.sigmoid_53/Sigmoid", "op": "Sigmoid", "input": ["PartitionedCall/model_2/tf.math.add_77/Add"], "attr": {"T": {"type": "DT_FLOAT"}}}, {"name": "PartitionedCall/model_2/tf.math.add_75/Add", "op": "AddV2", "input": ["PartitionedCall/model_2/tf.nn.convolution_51/convolution", "1456"], "attr": {"T": {"type": "DT_FLOAT"}}}, {"name": "PartitionedCall/model_2/tf.math.multiply_170/Mul", "op": "Mul", "input": ["PartitionedCall/model_2/tf.math.add_76/Add", "PartitionedCall/model_2/tf.math.sigmoid_52/Sigmoid"], "attr": {"T": {"type": "DT_FLOAT"}}}, {"name": "PartitionedCall/model_2/tf.math.multiply_173/Mul", "op": "Mul", "input": ["PartitionedCall/model_2/tf.math.add_77/Add", "PartitionedCall/model_2/tf.math.sigmoid_53/Sigmoid"], "attr": {"T": {"type": "DT_FLOAT"}}}, {"name": "PartitionedCall/model_2/tf.math.sigmoid_51/Sigmoid", "op": "Sigmoid", "input": ["PartitionedCall/model_2/tf.math.add_75/Add"], "attr": {"T": {"type": "DT_FLOAT"}}}, {"name": "PartitionedCall/model_2/tf.nn.convolution_54/convolution", "op": "Conv2D", "input": ["PartitionedCall/model_2/tf.math.multiply_170/Mul", "1562"], "device": "/device:CPU:0", "attr": {"strides": {"list": {"i": ["1", "1", "1", "1"]}}, "dilations": {"list": {"i": ["1", "1", "1", "1"]}}, "explicit_paddings": {"list": {}}, "use_cudnn_on_gpu": {"b": true}, "padding": {"s": "U0FNRQ=="}, "data_format": {"s": "TkhXQw=="}, "T": {"type": "DT_FLOAT"}}}, {"name": "PartitionedCall/model_2/tf.nn.convolution_55/convolution", "op": "Conv2D", "input": ["PartitionedCall/model_2/tf.math.multiply_173/Mul", "1560"], "device": "/device:CPU:0", "attr": {"strides": {"list": {"i": ["1", "1", "1", "1"]}}, "dilations": {"list": {"i": ["1", "1", "1", "1"]}}, "padding": {"s": "U0FNRQ=="}, "T": {"type": "DT_FLOAT"}, "explicit_paddings": {"list": {}}, "data_format": {"s": "TkhXQw=="}, "use_cudnn_on_gpu": {"b": true}}}, {"name": "PartitionedCall/model_2/tf.math.multiply_167/Mul", "op": "Mul", "input": ["PartitionedCall/model_2/tf.math.add_75/Add", "PartitionedCall/model_2/tf.math.sigmoid_51/Sigmoid"], "attr": {"T": {"type": "DT_FLOAT"}}}, {"name": "PartitionedCall/model_2/tf.math.add_78/Add", "op": "AddV2", "input": ["PartitionedCall/model_2/tf.nn.convolution_54/convolution", "1574"], "attr": {"T": {"type": "DT_FLOAT"}}}, {"name": "PartitionedCall/model_2/tf.math.add_79/Add", "op": "AddV2", "input": ["PartitionedCall/model_2/tf.nn.convolution_55/convolution", "1572"], "attr": {"T": {"type": "DT_FLOAT"}}}, {"name": "PartitionedCall/model_2/tf.concat_9/concat", "op": "ConcatV2", "input": ["PartitionedCall/model_2/tf.math.multiply_167/Mul", "PartitionedCall/model_2/tf.math.multiply_146/Mul", "PartitionedCall/model_2/tf.concat_9/concat/axis"], "attr": {"Tidx": {"type": "DT_INT32"}, "N": {"i": "2"}, "T": {"type": "DT_FLOAT"}}}, {"name": "PartitionedCall/model_2/tf.math.sigmoid_54/Sigmoid", "op": "Sigmoid", "input": ["PartitionedCall/model_2/tf.math.add_78/Add"], "attr": {"T": {"type": "DT_FLOAT"}}}, {"name": "PartitionedCall/model_2/tf.math.sigmoid_55/Sigmoid", "op": "Sigmoid", "input": ["PartitionedCall/model_2/tf.math.add_79/Add"], "attr": {"T": {"type": "DT_FLOAT"}}}, {"name": "PartitionedCall/model_2/tf.nn.convolution_56/convolution", "op": "Conv2D", "input": ["PartitionedCall/model_2/tf.concat_9/concat", "1458"], "device": "/device:CPU:0", "attr": {"dilations": {"list": {"i": ["1", "1", "1", "1"]}}, "padding": {"s": "U0FNRQ=="}, "strides": {"list": {"i": ["1", "1", "1", "1"]}}, "use_cudnn_on_gpu": {"b": true}, "data_format": {"s": "TkhXQw=="}, "explicit_paddings": {"list": {}}, "T": {"type": "DT_FLOAT"}}}, {"name": "PartitionedCall/model_2/tf.math.multiply_176/Mul", "op": "Mul", "input": ["PartitionedCall/model_2/tf.math.add_78/Add", "PartitionedCall/model_2/tf.math.sigmoid_54/Sigmoid"], "attr": {"T": {"type": "DT_FLOAT"}}}, {"name": "PartitionedCall/model_2/tf.math.multiply_179/Mul", "op": "Mul", "input": ["PartitionedCall/model_2/tf.math.add_79/Add", "PartitionedCall/model_2/tf.math.sigmoid_55/Sigmoid"], "attr": {"T": {"type": "DT_FLOAT"}}}, {"name": "PartitionedCall/model_2/tf.math.add_80/Add", "op": "AddV2", "input": ["PartitionedCall/model_2/tf.nn.convolution_56/convolution", "1460"], "attr": {"T": {"type": "DT_FLOAT"}}}, {"name": "PartitionedCall/model_2/tf.nn.convolution_57/convolution", "op": "Conv2D", "input": ["PartitionedCall/model_2/tf.math.multiply_176/Mul", "1586"], "device": "/device:CPU:0", "attr": {"data_format": {"s": "TkhXQw=="}, "padding": {"s": "U0FNRQ=="}, "strides": {"list": {"i": ["1", "1", "1", "1"]}}, "use_cudnn_on_gpu": {"b": true}, "dilations": {"list": {"i": ["1", "1", "1", "1"]}}, "explicit_paddings": {"list": {}}, "T": {"type": "DT_FLOAT"}}}, {"name": "PartitionedCall/model_2/tf.nn.convolution_58/convolution", "op": "Conv2D", "input": ["PartitionedCall/model_2/tf.math.multiply_179/Mul", "1584"], "device": "/device:CPU:0", "attr": {"strides": {"list": {"i": ["1", "1", "1", "1"]}}, "data_format": {"s": "TkhXQw=="}, "dilations": {"list": {"i": ["1", "1", "1", "1"]}}, "explicit_paddings": {"list": {}}, "T": {"type": "DT_FLOAT"}, "use_cudnn_on_gpu": {"b": true}, "padding": {"s": "U0FNRQ=="}}}, {"name": "PartitionedCall/model_2/tf.math.sigmoid_56/Sigmoid", "op": "Sigmoid", "input": ["PartitionedCall/model_2/tf.math.add_80/Add"], "attr": {"T": {"type": "DT_FLOAT"}}}, {"name": "PartitionedCall/model_2/tf.math.add_81/Add", "op": "AddV2", "input": ["PartitionedCall/model_2/tf.nn.convolution_57/convolution", "1596"], "attr": {"T": {"type": "DT_FLOAT"}}}, {"name": "PartitionedCall/model_2/tf.math.add_82/Add", "op": "AddV2", "input": ["PartitionedCall/model_2/tf.nn.convolution_58/convolution", "1598"], "attr": {"T": {"type": "DT_FLOAT"}}}, {"name": "PartitionedCall/model_2/tf.math.multiply_182/Mul", "op": "Mul", "input": ["PartitionedCall/model_2/tf.math.add_80/Add", "PartitionedCall/model_2/tf.math.sigmoid_56/Sigmoid"], "attr": {"T": {"type": "DT_FLOAT"}}}, {"name": "PartitionedCall/model_2/tf.concat_10/concat", "op": "ConcatV2", "input": ["PartitionedCall/model_2/tf.math.add_81/Add", "PartitionedCall/model_2/tf.math.add_82/Add", "PartitionedCall/model_2/tf.concat_10/concat/axis"], "attr": {"T": {"type": "DT_FLOAT"}, "N": {"i": "2"}, "Tidx": {"type": "DT_INT32"}}}, {"name": "PartitionedCall/model_2/tf.strided_slice_25/StridedSlice", "op": "StridedSlice", "input": ["PartitionedCall/model_2/tf.math.multiply_182/Mul", "1482", "1484", "PartitionedCall/model_2/tf.strided_slice_25/ones_like"], "attr": {"ellipsis_mask": {"i": "0"}, "end_mask": {"i": "7"}, "T": {"type": "DT_FLOAT"}, "Index": {"type": "DT_INT64"}, "new_axis_mask": {"i": "0"}, "shrink_axis_mask": {"i": "0"}, "begin_mask": {"i": "15"}}}, {"name": "PartitionedCall/model_2/tf.strided_slice_27/StridedSlice", "op": "StridedSlice", "input": ["PartitionedCall/model_2/tf.math.multiply_182/Mul", "1462", "1464", "PartitionedCall/model_2/tf.strided_slice_27/ones_like"], "attr": {"end_mask": {"i": "7"}, "Index": {"type": "DT_INT64"}, "begin_mask": {"i": "7"}, "ellipsis_mask": {"i": "0"}, "new_axis_mask": {"i": "0"}, "T": {"type": "DT_FLOAT"}, "shrink_axis_mask": {"i": "0"}}}, {"name": "PartitionedCall/model_2/tf.compat.v1.transpose/transpose", "op": "Transpose", "input": ["PartitionedCall/model_2/tf.concat_10/concat", "PartitionedCall/model_2/tf.compat.v1.transpose/transpose/perm"], "attr": {"T": {"type": "DT_FLOAT"}, "Tperm": {"type": "DT_INT32"}}}, {"name": "PartitionedCall/model_2/tf.nn.convolution_59/convolution", "op": "Conv2D", "input": ["PartitionedCall/model_2/tf.strided_slice_27/StridedSlice", "1466"], "device": "/device:CPU:0", "attr": {"dilations": {"list": {"i": ["1", "1", "1", "1"]}}, "strides": {"list": {"i": ["1", "1", "1", "1"]}}, "explicit_paddings": {"list": {}}, "T": {"type": "DT_FLOAT"}, "padding": {"s": "U0FNRQ=="}, "data_format": {"s": "TkhXQw=="}, "use_cudnn_on_gpu": {"b": true}}}, {"name": "PartitionedCall/model_2/tf.reshape/Reshape", "op": "Reshape", "input": ["PartitionedCall/model_2/tf.compat.v1.transpose/transpose", "PartitionedCall/model_2/tf.reshape/Reshape/shape"], "attr": {"T": {"type": "DT_FLOAT"}, "Tshape": {"type": "DT_INT32"}}}, {"name": "PartitionedCall/model_2/tf.math.add_83/Add", "op": "AddV2", "input": ["PartitionedCall/model_2/tf.nn.convolution_59/convolution", "1468"], "attr": {"T": {"type": "DT_FLOAT"}}}, {"name": "PartitionedCall/model_2/tf.math.sigmoid_57/Sigmoid", "op": "Sigmoid", "input": ["PartitionedCall/model_2/tf.math.add_83/Add"], "attr": {"T": {"type": "DT_FLOAT"}}}, {"name": "PartitionedCall/model_2/tf.math.multiply_185/Mul", "op": "Mul", "input": ["PartitionedCall/model_2/tf.math.add_83/Add", "PartitionedCall/model_2/tf.math.sigmoid_57/Sigmoid"], "attr": {"T": {"type": "DT_FLOAT"}}}, {"name": "PartitionedCall/model_2/tf.nn.convolution_60/convolution", "op": "Conv2D", "input": ["PartitionedCall/model_2/tf.math.multiply_185/Mul", "1470"], "device": "/device:CPU:0", "attr": {"strides": {"list": {"i": ["1", "1", "1", "1"]}}, "padding": {"s": "U0FNRQ=="}, "dilations": {"list": {"i": ["1", "1", "1", "1"]}}, "T": {"type": "DT_FLOAT"}, "explicit_paddings": {"list": {}}, "data_format": {"s": "TkhXQw=="}, "use_cudnn_on_gpu": {"b": true}}}, {"name": "PartitionedCall/model_2/tf.math.add_84/Add", "op": "AddV2", "input": ["PartitionedCall/model_2/tf.nn.convolution_60/convolution", "1472"], "attr": {"T": {"type": "DT_FLOAT"}}}, {"name": "PartitionedCall/model_2/tf.math.sigmoid_58/Sigmoid", "op": "Sigmoid", "input": ["PartitionedCall/model_2/tf.math.add_84/Add"], "attr": {"T": {"type": "DT_FLOAT"}}}, {"name": "PartitionedCall/model_2/tf.math.multiply_188/Mul", "op": "Mul", "input": ["PartitionedCall/model_2/tf.math.add_84/Add", "PartitionedCall/model_2/tf.math.sigmoid_58/Sigmoid"], "attr": {"T": {"type": "DT_FLOAT"}}}, {"name": "PartitionedCall/model_2/tf.nn.convolution_61/convolution", "op": "Conv2D", "input": ["PartitionedCall/model_2/tf.math.multiply_188/Mul", "1474"], "device": "/device:CPU:0", "attr": {"data_format": {"s": "TkhXQw=="}, "padding": {"s": "U0FNRQ=="}, "T": {"type": "DT_FLOAT"}, "dilations": {"list": {"i": ["1", "1", "1", "1"]}}, "use_cudnn_on_gpu": {"b": true}, "strides": {"list": {"i": ["1", "1", "1", "1"]}}, "explicit_paddings": {"list": {}}}}, {"name": "PartitionedCall/model_2/tf.math.add_85/Add", "op": "AddV2", "input": ["PartitionedCall/model_2/tf.nn.convolution_61/convolution", "1476"], "attr": {"T": {"type": "DT_FLOAT"}}}, {"name": "PartitionedCall/model_2/tf.math.sigmoid_59/Sigmoid", "op": "Sigmoid", "input": ["PartitionedCall/model_2/tf.math.add_85/Add"], "attr": {"T": {"type": "DT_FLOAT"}}}, {"name": "PartitionedCall/model_2/tf.math.multiply_191/Mul", "op": "Mul", "input": ["PartitionedCall/model_2/tf.math.add_85/Add", "PartitionedCall/model_2/tf.math.sigmoid_59/Sigmoid"], "attr": {"T": {"type": "DT_FLOAT"}}}, {"name": "PartitionedCall/model_2/tf.nn.convolution_62/convolution", "op": "Conv2D", "input": ["PartitionedCall/model_2/tf.math.multiply_191/Mul", "1478"], "device": "/device:CPU:0", "attr": {"dilations": {"list": {"i": ["1", "1", "1", "1"]}}, "data_format": {"s": "TkhXQw=="}, "T": {"type": "DT_FLOAT"}, "strides": {"list": {"i": ["1", "1", "1", "1"]}}, "padding": {"s": "U0FNRQ=="}, "explicit_paddings": {"list": {}}, "use_cudnn_on_gpu": {"b": true}}}, {"name": "PartitionedCall/model_2/tf.math.add_86/Add", "op": "AddV2", "input": ["PartitionedCall/model_2/tf.nn.convolution_62/convolution", "1480"], "attr": {"T": {"type": "DT_FLOAT"}}}, {"name": "PartitionedCall/model_2/tf.math.sigmoid_60/Sigmoid", "op": "Sigmoid", "input": ["PartitionedCall/model_2/tf.math.add_86/Add"], "attr": {"T": {"type": "DT_FLOAT"}}}, {"name": "PartitionedCall/model_2/tf.math.multiply_194/Mul", "op": "Mul", "input": ["PartitionedCall/model_2/tf.math.add_86/Add", "PartitionedCall/model_2/tf.math.sigmoid_60/Sigmoid"], "attr": {"T": {"type": "DT_FLOAT"}}}, {"name": "PartitionedCall/model_2/tf.concat_11/concat", "op": "ConcatV2", "input": ["PartitionedCall/model_2/tf.strided_slice_25/StridedSlice", "PartitionedCall/model_2/tf.strided_slice_27/StridedSlice", "PartitionedCall/model_2/tf.math.multiply_188/Mul", "PartitionedCall/model_2/tf.math.multiply_194/Mul", "PartitionedCall/model_2/tf.concat_11/concat/axis"], "attr": {"T": {"type": "DT_FLOAT"}, "Tidx": {"type": "DT_INT32"}, "N": {"i": "4"}}}, {"name": "PartitionedCall/model_2/tf.nn.convolution_63/convolution", "op": "Conv2D", "input": ["PartitionedCall/model_2/tf.concat_11/concat", "1486"], "device": "/device:CPU:0", "attr": {"strides": {"list": {"i": ["1", "1", "1", "1"]}}, "T": {"type": "DT_FLOAT"}, "dilations": {"list": {"i": ["1", "1", "1", "1"]}}, "use_cudnn_on_gpu": {"b": true}, "data_format": {"s": "TkhXQw=="}, "padding": {"s": "U0FNRQ=="}, "explicit_paddings": {"list": {}}}}, {"name": "PartitionedCall/model_2/tf.math.add_87/Add", "op": "AddV2", "input": ["PartitionedCall/model_2/tf.nn.convolution_63/convolution", "1488"], "attr": {"T": {"type": "DT_FLOAT"}}}, {"name": "PartitionedCall/model_2/tf.math.sigmoid_61/Sigmoid", "op": "Sigmoid", "input": ["PartitionedCall/model_2/tf.math.add_87/Add"], "attr": {"T": {"type": "DT_FLOAT"}}}, {"name": "PartitionedCall/model_2/tf.math.multiply_197/Mul", "op": "Mul", "input": ["PartitionedCall/model_2/tf.math.add_87/Add", "PartitionedCall/model_2/tf.math.sigmoid_61/Sigmoid"], "attr": {"T": {"type": "DT_FLOAT"}}}, {"name": "PartitionedCall/model_2/tf.nn.convolution_65/convolution", "op": "Conv2D", "input": ["PartitionedCall/model_2/tf.math.multiply_197/Mul", "1534"], "device": "/device:CPU:0", "attr": {"use_cudnn_on_gpu": {"b": true}, "explicit_paddings": {"list": {}}, "data_format": {"s": "TkhXQw=="}, "padding": {"s": "U0FNRQ=="}, "strides": {"list": {"i": ["1", "1", "1", "1"]}}, "dilations": {"list": {"i": ["1", "1", "1", "1"]}}, "T": {"type": "DT_FLOAT"}}}, {"name": "PartitionedCall/model_2/tf.nn.convolution_66/convolution", "op": "Conv2D", "input": ["PartitionedCall/model_2/tf.math.multiply_197/Mul", "1532"], "device": "/device:CPU:0", "attr": {"padding": {"s": "U0FNRQ=="}, "data_format": {"s": "TkhXQw=="}, "use_cudnn_on_gpu": {"b": true}, "dilations": {"list": {"i": ["1", "1", "1", "1"]}}, "strides": {"list": {"i": ["1", "1", "1", "1"]}}, "T": {"type": "DT_FLOAT"}, "explicit_paddings": {"list": {}}}}, {"name": "PartitionedCall/model_2/tf.compat.v1.pad_6/Pad", "op": "Pad", "input": ["PartitionedCall/model_2/tf.math.multiply_197/Mul", "1490"], "attr": {"T": {"type": "DT_FLOAT"}, "Tpaddings": {"type": "DT_INT32"}}}, {"name": "PartitionedCall/model_2/tf.math.add_89/Add", "op": "AddV2", "input": ["PartitionedCall/model_2/tf.nn.convolution_65/convolution", "1546"], "attr": {"T": {"type": "DT_FLOAT"}}}, {"name": "PartitionedCall/model_2/tf.math.add_90/Add", "op": "AddV2", "input": ["PartitionedCall/model_2/tf.nn.convolution_66/convolution", "1544"], "attr": {"T": {"type": "DT_FLOAT"}}}, {"name": "PartitionedCall/model_2/tf.nn.convolution_64/convolution", "op": "Conv2D", "input": ["PartitionedCall/model_2/tf.compat.v1.pad_6/Pad", "1492"], "device": "/device:CPU:0", "attr": {"data_format": {"s": "TkhXQw=="}, "explicit_paddings": {"list": {}}, "strides": {"list": {"i": ["1", "2", "2", "1"]}}, "padding": {"s": "VkFMSUQ="}, "T": {"type": "DT_FLOAT"}, "dilations": {"list": {"i": ["1", "1", "1", "1"]}}, "use_cudnn_on_gpu": {"b": true}}}, {"name": "PartitionedCall/model_2/tf.math.sigmoid_63/Sigmoid", "op": "Sigmoid", "input": ["PartitionedCall/model_2/tf.math.add_89/Add"], "attr": {"T": {"type": "DT_FLOAT"}}}, {"name": "PartitionedCall/model_2/tf.math.sigmoid_64/Sigmoid", "op": "Sigmoid", "input": ["PartitionedCall/model_2/tf.math.add_90/Add"], "attr": {"T": {"type": "DT_FLOAT"}}}, {"name": "PartitionedCall/model_2/tf.math.add_88/Add", "op": "AddV2", "input": ["PartitionedCall/model_2/tf.nn.convolution_64/convolution", "1494"], "attr": {"T": {"type": "DT_FLOAT"}}}, {"name": "PartitionedCall/model_2/tf.math.multiply_203/Mul", "op": "Mul", "input": ["PartitionedCall/model_2/tf.math.add_89/Add", "PartitionedCall/model_2/tf.math.sigmoid_63/Sigmoid"], "attr": {"T": {"type": "DT_FLOAT"}}}, {"name": "PartitionedCall/model_2/tf.math.multiply_206/Mul", "op": "Mul", "input": ["PartitionedCall/model_2/tf.math.add_90/Add", "PartitionedCall/model_2/tf.math.sigmoid_64/Sigmoid"], "attr": {"T": {"type": "DT_FLOAT"}}}, {"name": "PartitionedCall/model_2/tf.math.sigmoid_62/Sigmoid", "op": "Sigmoid", "input": ["PartitionedCall/model_2/tf.math.add_88/Add"], "attr": {"T": {"type": "DT_FLOAT"}}}, {"name": "PartitionedCall/model_2/tf.nn.convolution_67/convolution", "op": "Conv2D", "input": ["PartitionedCall/model_2/tf.math.multiply_203/Mul", "1558"], "device": "/device:CPU:0", "attr": {"data_format": {"s": "TkhXQw=="}, "dilations": {"list": {"i": ["1", "1", "1", "1"]}}, "use_cudnn_on_gpu": {"b": true}, "strides": {"list": {"i": ["1", "1", "1", "1"]}}, "T": {"type": "DT_FLOAT"}, "explicit_paddings": {"list": {}}, "padding": {"s": "U0FNRQ=="}}}, {"name": "PartitionedCall/model_2/tf.nn.convolution_68/convolution", "op": "Conv2D", "input": ["PartitionedCall/model_2/tf.math.multiply_206/Mul", "1556"], "device": "/device:CPU:0", "attr": {"T": {"type": "DT_FLOAT"}, "data_format": {"s": "TkhXQw=="}, "strides": {"list": {"i": ["1", "1", "1", "1"]}}, "dilations": {"list": {"i": ["1", "1", "1", "1"]}}, "explicit_paddings": {"list": {}}, "use_cudnn_on_gpu": {"b": true}, "padding": {"s": "U0FNRQ=="}}}, {"name": "PartitionedCall/model_2/tf.math.multiply_200/Mul", "op": "Mul", "input": ["PartitionedCall/model_2/tf.math.add_88/Add", "PartitionedCall/model_2/tf.math.sigmoid_62/Sigmoid"], "attr": {"T": {"type": "DT_FLOAT"}}}, {"name": "PartitionedCall/model_2/tf.math.add_91/Add", "op": "AddV2", "input": ["PartitionedCall/model_2/tf.nn.convolution_67/convolution", "1570"], "attr": {"T": {"type": "DT_FLOAT"}}}, {"name": "PartitionedCall/model_2/tf.math.add_92/Add", "op": "AddV2", "input": ["PartitionedCall/model_2/tf.nn.convolution_68/convolution", "1568"], "attr": {"T": {"type": "DT_FLOAT"}}}, {"name": "PartitionedCall/model_2/tf.concat_12/concat", "op": "ConcatV2", "input": ["PartitionedCall/model_2/tf.math.multiply_200/Mul", "PartitionedCall/model_2/tf.math.multiply_128/Mul", "PartitionedCall/model_2/tf.concat_12/concat/axis"], "attr": {"N": {"i": "2"}, "T": {"type": "DT_FLOAT"}, "Tidx": {"type": "DT_INT32"}}}, {"name": "PartitionedCall/model_2/tf.math.sigmoid_65/Sigmoid", "op": "Sigmoid", "input": ["PartitionedCall/model_2/tf.math.add_91/Add"], "attr": {"T": {"type": "DT_FLOAT"}}}, {"name": "PartitionedCall/model_2/tf.math.sigmoid_66/Sigmoid", "op": "Sigmoid", "input": ["PartitionedCall/model_2/tf.math.add_92/Add"], "attr": {"T": {"type": "DT_FLOAT"}}}, {"name": "PartitionedCall/model_2/tf.nn.convolution_69/convolution", "op": "Conv2D", "input": ["PartitionedCall/model_2/tf.concat_12/concat", "1496"], "device": "/device:CPU:0", "attr": {"padding": {"s": "U0FNRQ=="}, "data_format": {"s": "TkhXQw=="}, "use_cudnn_on_gpu": {"b": true}, "strides": {"list": {"i": ["1", "1", "1", "1"]}}, "explicit_paddings": {"list": {}}, "T": {"type": "DT_FLOAT"}, "dilations": {"list": {"i": ["1", "1", "1", "1"]}}}}, {"name": "PartitionedCall/model_2/tf.math.multiply_209/Mul", "op": "Mul", "input": ["PartitionedCall/model_2/tf.math.add_91/Add", "PartitionedCall/model_2/tf.math.sigmoid_65/Sigmoid"], "attr": {"T": {"type": "DT_FLOAT"}}}, {"name": "PartitionedCall/model_2/tf.math.multiply_212/Mul", "op": "Mul", "input": ["PartitionedCall/model_2/tf.math.add_92/Add", "PartitionedCall/model_2/tf.math.sigmoid_66/Sigmoid"], "attr": {"T": {"type": "DT_FLOAT"}}}, {"name": "PartitionedCall/model_2/tf.math.add_93/Add", "op": "AddV2", "input": ["PartitionedCall/model_2/tf.nn.convolution_69/convolution", "1498"], "attr": {"T": {"type": "DT_FLOAT"}}}, {"name": "PartitionedCall/model_2/tf.nn.convolution_70/convolution", "op": "Conv2D", "input": ["PartitionedCall/model_2/tf.math.multiply_209/Mul", "1582"], "device": "/device:CPU:0", "attr": {"dilations": {"list": {"i": ["1", "1", "1", "1"]}}, "use_cudnn_on_gpu": {"b": true}, "T": {"type": "DT_FLOAT"}, "strides": {"list": {"i": ["1", "1", "1", "1"]}}, "explicit_paddings": {"list": {}}, "padding": {"s": "U0FNRQ=="}, "data_format": {"s": "TkhXQw=="}}}, {"name": "PartitionedCall/model_2/tf.nn.convolution_71/convolution", "op": "Conv2D", "input": ["PartitionedCall/model_2/tf.math.multiply_212/Mul", "1580"], "device": "/device:CPU:0", "attr": {"dilations": {"list": {"i": ["1", "1", "1", "1"]}}, "explicit_paddings": {"list": {}}, "strides": {"list": {"i": ["1", "1", "1", "1"]}}, "use_cudnn_on_gpu": {"b": true}, "padding": {"s": "U0FNRQ=="}, "data_format": {"s": "TkhXQw=="}, "T": {"type": "DT_FLOAT"}}}, {"name": "PartitionedCall/model_2/tf.math.sigmoid_67/Sigmoid", "op": "Sigmoid", "input": ["PartitionedCall/model_2/tf.math.add_93/Add"], "attr": {"T": {"type": "DT_FLOAT"}}}, {"name": "PartitionedCall/model_2/tf.math.add_94/Add", "op": "AddV2", "input": ["PartitionedCall/model_2/tf.nn.convolution_70/convolution", "1592"], "attr": {"T": {"type": "DT_FLOAT"}}}, {"name": "PartitionedCall/model_2/tf.math.add_95/Add", "op": "AddV2", "input": ["PartitionedCall/model_2/tf.nn.convolution_71/convolution", "1594"], "attr": {"T": {"type": "DT_FLOAT"}}}, {"name": "PartitionedCall/model_2/tf.math.multiply_215/Mul", "op": "Mul", "input": ["PartitionedCall/model_2/tf.math.add_93/Add", "PartitionedCall/model_2/tf.math.sigmoid_67/Sigmoid"], "attr": {"T": {"type": "DT_FLOAT"}}}, {"name": "PartitionedCall/model_2/tf.concat_13/concat", "op": "ConcatV2", "input": ["PartitionedCall/model_2/tf.math.add_94/Add", "PartitionedCall/model_2/tf.math.add_95/Add", "PartitionedCall/model_2/tf.concat_13/concat/axis"], "attr": {"Tidx": {"type": "DT_INT32"}, "T": {"type": "DT_FLOAT"}, "N": {"i": "2"}}}, {"name": "PartitionedCall/model_2/tf.strided_slice_29/StridedSlice", "op": "StridedSlice", "input": ["PartitionedCall/model_2/tf.math.multiply_215/Mul", "1520", "1522", "PartitionedCall/model_2/tf.strided_slice_29/ones_like"], "attr": {"new_axis_mask": {"i": "0"}, "T": {"type": "DT_FLOAT"}, "shrink_axis_mask": {"i": "0"}, "ellipsis_mask": {"i": "0"}, "Index": {"type": "DT_INT64"}, "begin_mask": {"i": "15"}, "end_mask": {"i": "7"}}}, {"name": "PartitionedCall/model_2/tf.strided_slice_31/StridedSlice", "op": "StridedSlice", "input": ["PartitionedCall/model_2/tf.math.multiply_215/Mul", "1500", "1502", "PartitionedCall/model_2/tf.strided_slice_31/ones_like"], "attr": {"Index": {"type": "DT_INT64"}, "end_mask": {"i": "7"}, "T": {"type": "DT_FLOAT"}, "shrink_axis_mask": {"i": "0"}, "new_axis_mask": {"i": "0"}, "ellipsis_mask": {"i": "0"}, "begin_mask": {"i": "7"}}}, {"name": "PartitionedCall/model_2/tf.compat.v1.transpose_1/transpose", "op": "Transpose", "input": ["PartitionedCall/model_2/tf.concat_13/concat", "PartitionedCall/model_2/tf.compat.v1.transpose_1/transpose/perm"], "attr": {"Tperm": {"type": "DT_INT32"}, "T": {"type": "DT_FLOAT"}}}, {"name": "PartitionedCall/model_2/tf.nn.convolution_72/convolution", "op": "Conv2D", "input": ["PartitionedCall/model_2/tf.strided_slice_31/StridedSlice", "1504"], "device": "/device:CPU:0", "attr": {"dilations": {"list": {"i": ["1", "1", "1", "1"]}}, "data_format": {"s": "TkhXQw=="}, "padding": {"s": "U0FNRQ=="}, "T": {"type": "DT_FLOAT"}, "explicit_paddings": {"list": {}}, "use_cudnn_on_gpu": {"b": true}, "strides": {"list": {"i": ["1", "1", "1", "1"]}}}}, {"name": "PartitionedCall/model_2/tf.reshape_1/Reshape", "op": "Reshape", "input": ["PartitionedCall/model_2/tf.compat.v1.transpose_1/transpose", "PartitionedCall/model_2/tf.reshape_1/Reshape/shape"], "attr": {"Tshape": {"type": "DT_INT32"}, "T": {"type": "DT_FLOAT"}}}, {"name": "PartitionedCall/model_2/tf.math.add_96/Add", "op": "AddV2", "input": ["PartitionedCall/model_2/tf.nn.convolution_72/convolution", "1506"], "attr": {"T": {"type": "DT_FLOAT"}}}, {"name": "PartitionedCall/model_2/tf.math.sigmoid_68/Sigmoid", "op": "Sigmoid", "input": ["PartitionedCall/model_2/tf.math.add_96/Add"], "attr": {"T": {"type": "DT_FLOAT"}}}, {"name": "PartitionedCall/model_2/tf.math.multiply_218/Mul", "op": "Mul", "input": ["PartitionedCall/model_2/tf.math.add_96/Add", "PartitionedCall/model_2/tf.math.sigmoid_68/Sigmoid"], "attr": {"T": {"type": "DT_FLOAT"}}}, {"name": "PartitionedCall/model_2/tf.nn.convolution_73/convolution", "op": "Conv2D", "input": ["PartitionedCall/model_2/tf.math.multiply_218/Mul", "1508"], "device": "/device:CPU:0", "attr": {"use_cudnn_on_gpu": {"b": true}, "dilations": {"list": {"i": ["1", "1", "1", "1"]}}, "explicit_paddings": {"list": {}}, "data_format": {"s": "TkhXQw=="}, "strides": {"list": {"i": ["1", "1", "1", "1"]}}, "padding": {"s": "U0FNRQ=="}, "T": {"type": "DT_FLOAT"}}}, {"name": "PartitionedCall/model_2/tf.math.add_97/Add", "op": "AddV2", "input": ["PartitionedCall/model_2/tf.nn.convolution_73/convolution", "1510"], "attr": {"T": {"type": "DT_FLOAT"}}}, {"name": "PartitionedCall/model_2/tf.math.sigmoid_69/Sigmoid", "op": "Sigmoid", "input": ["PartitionedCall/model_2/tf.math.add_97/Add"], "attr": {"T": {"type": "DT_FLOAT"}}}, {"name": "PartitionedCall/model_2/tf.math.multiply_221/Mul", "op": "Mul", "input": ["PartitionedCall/model_2/tf.math.add_97/Add", "PartitionedCall/model_2/tf.math.sigmoid_69/Sigmoid"], "attr": {"T": {"type": "DT_FLOAT"}}}, {"name": "PartitionedCall/model_2/tf.nn.convolution_74/convolution", "op": "Conv2D", "input": ["PartitionedCall/model_2/tf.math.multiply_221/Mul", "1512"], "device": "/device:CPU:0", "attr": {"dilations": {"list": {"i": ["1", "1", "1", "1"]}}, "explicit_paddings": {"list": {}}, "T": {"type": "DT_FLOAT"}, "data_format": {"s": "TkhXQw=="}, "strides": {"list": {"i": ["1", "1", "1", "1"]}}, "use_cudnn_on_gpu": {"b": true}, "padding": {"s": "U0FNRQ=="}}}, {"name": "PartitionedCall/model_2/tf.math.add_98/Add", "op": "AddV2", "input": ["PartitionedCall/model_2/tf.nn.convolution_74/convolution", "1514"], "attr": {"T": {"type": "DT_FLOAT"}}}, {"name": "PartitionedCall/model_2/tf.math.sigmoid_70/Sigmoid", "op": "Sigmoid", "input": ["PartitionedCall/model_2/tf.math.add_98/Add"], "attr": {"T": {"type": "DT_FLOAT"}}}, {"name": "PartitionedCall/model_2/tf.math.multiply_224/Mul", "op": "Mul", "input": ["PartitionedCall/model_2/tf.math.add_98/Add", "PartitionedCall/model_2/tf.math.sigmoid_70/Sigmoid"], "attr": {"T": {"type": "DT_FLOAT"}}}, {"name": "PartitionedCall/model_2/tf.nn.convolution_75/convolution", "op": "Conv2D", "input": ["PartitionedCall/model_2/tf.math.multiply_224/Mul", "1516"], "device": "/device:CPU:0", "attr": {"data_format": {"s": "TkhXQw=="}, "strides": {"list": {"i": ["1", "1", "1", "1"]}}, "padding": {"s": "U0FNRQ=="}, "T": {"type": "DT_FLOAT"}, "dilations": {"list": {"i": ["1", "1", "1", "1"]}}, "explicit_paddings": {"list": {}}, "use_cudnn_on_gpu": {"b": true}}}, {"name": "PartitionedCall/model_2/tf.math.add_99/Add", "op": "AddV2", "input": ["PartitionedCall/model_2/tf.nn.convolution_75/convolution", "1518"], "attr": {"T": {"type": "DT_FLOAT"}}}, {"name": "PartitionedCall/model_2/tf.math.sigmoid_71/Sigmoid", "op": "Sigmoid", "input": ["PartitionedCall/model_2/tf.math.add_99/Add"], "attr": {"T": {"type": "DT_FLOAT"}}}, {"name": "PartitionedCall/model_2/tf.math.multiply_227/Mul", "op": "Mul", "input": ["PartitionedCall/model_2/tf.math.add_99/Add", "PartitionedCall/model_2/tf.math.sigmoid_71/Sigmoid"], "attr": {"T": {"type": "DT_FLOAT"}}}, {"name": "PartitionedCall/model_2/tf.concat_14/concat", "op": "ConcatV2", "input": ["PartitionedCall/model_2/tf.strided_slice_29/StridedSlice", "PartitionedCall/model_2/tf.strided_slice_31/StridedSlice", "PartitionedCall/model_2/tf.math.multiply_221/Mul", "PartitionedCall/model_2/tf.math.multiply_227/Mul", "PartitionedCall/model_2/tf.concat_14/concat/axis"], "attr": {"T": {"type": "DT_FLOAT"}, "N": {"i": "4"}, "Tidx": {"type": "DT_INT32"}}}, {"name": "PartitionedCall/model_2/tf.nn.convolution_76/convolution", "op": "Conv2D", "input": ["PartitionedCall/model_2/tf.concat_14/concat", "1524"], "device": "/device:CPU:0", "attr": {"strides": {"list": {"i": ["1", "1", "1", "1"]}}, "dilations": {"list": {"i": ["1", "1", "1", "1"]}}, "T": {"type": "DT_FLOAT"}, "data_format": {"s": "TkhXQw=="}, "explicit_paddings": {"list": {}}, "use_cudnn_on_gpu": {"b": true}, "padding": {"s": "U0FNRQ=="}}}, {"name": "PartitionedCall/model_2/tf.math.add_100/Add", "op": "AddV2", "input": ["PartitionedCall/model_2/tf.nn.convolution_76/convolution", "1526"], "attr": {"T": {"type": "DT_FLOAT"}}}, {"name": "PartitionedCall/model_2/tf.math.sigmoid_72/Sigmoid", "op": "Sigmoid", "input": ["PartitionedCall/model_2/tf.math.add_100/Add"], "attr": {"T": {"type": "DT_FLOAT"}}}, {"name": "PartitionedCall/model_2/tf.math.multiply_230/Mul", "op": "Mul", "input": ["PartitionedCall/model_2/tf.math.add_100/Add", "PartitionedCall/model_2/tf.math.sigmoid_72/Sigmoid"], "attr": {"T": {"type": "DT_FLOAT"}}}, {"name": "PartitionedCall/model_2/tf.nn.convolution_77/convolution", "op": "Conv2D", "input": ["PartitionedCall/model_2/tf.math.multiply_230/Mul", "1530"], "device": "/device:CPU:0", "attr": {"explicit_paddings": {"list": {}}, "data_format": {"s": "TkhXQw=="}, "padding": {"s": "U0FNRQ=="}, "use_cudnn_on_gpu": {"b": true}, "T": {"type": "DT_FLOAT"}, "strides": {"list": {"i": ["1", "1", "1", "1"]}}, "dilations": {"list": {"i": ["1", "1", "1", "1"]}}}}, {"name": "PartitionedCall/model_2/tf.nn.convolution_78/convolution", "op": "Conv2D", "input": ["PartitionedCall/model_2/tf.math.multiply_230/Mul", "1528"], "device": "/device:CPU:0", "attr": {"dilations": {"list": {"i": ["1", "1", "1", "1"]}}, "strides": {"list": {"i": ["1", "1", "1", "1"]}}, "data_format": {"s": "TkhXQw=="}, "use_cudnn_on_gpu": {"b": true}, "padding": {"s": "U0FNRQ=="}, "T": {"type": "DT_FLOAT"}, "explicit_paddings": {"list": {}}}}, {"name": "PartitionedCall/model_2/tf.math.add_101/Add", "op": "AddV2", "input": ["PartitionedCall/model_2/tf.nn.convolution_77/convolution", "1542"], "attr": {"T": {"type": "DT_FLOAT"}}}, {"name": "PartitionedCall/model_2/tf.math.add_102/Add", "op": "AddV2", "input": ["PartitionedCall/model_2/tf.nn.convolution_78/convolution", "1540"], "attr": {"T": {"type": "DT_FLOAT"}}}, {"name": "PartitionedCall/model_2/tf.math.sigmoid_73/Sigmoid", "op": "Sigmoid", "input": ["PartitionedCall/model_2/tf.math.add_101/Add"], "attr": {"T": {"type": "DT_FLOAT"}}}, {"name": "PartitionedCall/model_2/tf.math.sigmoid_74/Sigmoid", "op": "Sigmoid", "input": ["PartitionedCall/model_2/tf.math.add_102/Add"], "attr": {"T": {"type": "DT_FLOAT"}}}, {"name": "PartitionedCall/model_2/tf.math.multiply_233/Mul", "op": "Mul", "input": ["PartitionedCall/model_2/tf.math.add_101/Add", "PartitionedCall/model_2/tf.math.sigmoid_73/Sigmoid"], "attr": {"T": {"type": "DT_FLOAT"}}}, {"name": "PartitionedCall/model_2/tf.math.multiply_236/Mul", "op": "Mul", "input": ["PartitionedCall/model_2/tf.math.add_102/Add", "PartitionedCall/model_2/tf.math.sigmoid_74/Sigmoid"], "attr": {"T": {"type": "DT_FLOAT"}}}, {"name": "PartitionedCall/model_2/tf.nn.convolution_79/convolution", "op": "Conv2D", "input": ["PartitionedCall/model_2/tf.math.multiply_233/Mul", "1554"], "device": "/device:CPU:0", "attr": {"T": {"type": "DT_FLOAT"}, "use_cudnn_on_gpu": {"b": true}, "strides": {"list": {"i": ["1", "1", "1", "1"]}}, "explicit_paddings": {"list": {}}, "dilations": {"list": {"i": ["1", "1", "1", "1"]}}, "data_format": {"s": "TkhXQw=="}, "padding": {"s": "U0FNRQ=="}}}, {"name": "PartitionedCall/model_2/tf.nn.convolution_80/convolution", "op": "Conv2D", "input": ["PartitionedCall/model_2/tf.math.multiply_236/Mul", "1552"], "device": "/device:CPU:0", "attr": {"dilations": {"list": {"i": ["1", "1", "1", "1"]}}, "T": {"type": "DT_FLOAT"}, "padding": {"s": "U0FNRQ=="}, "data_format": {"s": "TkhXQw=="}, "explicit_paddings": {"list": {}}, "use_cudnn_on_gpu": {"b": true}, "strides": {"list": {"i": ["1", "1", "1", "1"]}}}}, {"name": "PartitionedCall/model_2/tf.math.add_103/Add", "op": "AddV2", "input": ["PartitionedCall/model_2/tf.nn.convolution_79/convolution", "1566"], "attr": {"T": {"type": "DT_FLOAT"}}}, {"name": "PartitionedCall/model_2/tf.math.add_104/Add", "op": "AddV2", "input": ["PartitionedCall/model_2/tf.nn.convolution_80/convolution", "1564"], "attr": {"T": {"type": "DT_FLOAT"}}}, {"name": "PartitionedCall/model_2/tf.math.sigmoid_75/Sigmoid", "op": "Sigmoid", "input": ["PartitionedCall/model_2/tf.math.add_103/Add"], "attr": {"T": {"type": "DT_FLOAT"}}}, {"name": "PartitionedCall/model_2/tf.math.sigmoid_76/Sigmoid", "op": "Sigmoid", "input": ["PartitionedCall/model_2/tf.math.add_104/Add"], "attr": {"T": {"type": "DT_FLOAT"}}}, {"name": "PartitionedCall/model_2/tf.math.multiply_239/Mul", "op": "Mul", "input": ["PartitionedCall/model_2/tf.math.add_103/Add", "PartitionedCall/model_2/tf.math.sigmoid_75/Sigmoid"], "attr": {"T": {"type": "DT_FLOAT"}}}, {"name": "PartitionedCall/model_2/tf.math.multiply_242/Mul", "op": "Mul", "input": ["PartitionedCall/model_2/tf.math.add_104/Add", "PartitionedCall/model_2/tf.math.sigmoid_76/Sigmoid"], "attr": {"T": {"type": "DT_FLOAT"}}}, {"name": "PartitionedCall/model_2/tf.nn.convolution_81/convolution", "op": "Conv2D", "input": ["PartitionedCall/model_2/tf.math.multiply_239/Mul", "1578"], "device": "/device:CPU:0", "attr": {"data_format": {"s": "TkhXQw=="}, "use_cudnn_on_gpu": {"b": true}, "dilations": {"list": {"i": ["1", "1", "1", "1"]}}, "strides": {"list": {"i": ["1", "1", "1", "1"]}}, "T": {"type": "DT_FLOAT"}, "explicit_paddings": {"list": {}}, "padding": {"s": "U0FNRQ=="}}}, {"name": "PartitionedCall/model_2/tf.nn.convolution_82/convolution", "op": "Conv2D", "input": ["PartitionedCall/model_2/tf.math.multiply_242/Mul", "1576"], "device": "/device:CPU:0", "attr": {"explicit_paddings": {"list": {}}, "dilations": {"list": {"i": ["1", "1", "1", "1"]}}, "data_format": {"s": "TkhXQw=="}, "padding": {"s": "U0FNRQ=="}, "strides": {"list": {"i": ["1", "1", "1", "1"]}}, "T": {"type": "DT_FLOAT"}, "use_cudnn_on_gpu": {"b": true}}}, {"name": "PartitionedCall/model_2/tf.math.add_105/Add", "op": "AddV2", "input": ["PartitionedCall/model_2/tf.nn.convolution_81/convolution", "1588"], "attr": {"T": {"type": "DT_FLOAT"}}}, {"name": "PartitionedCall/model_2/tf.math.add_106/Add", "op": "AddV2", "input": ["PartitionedCall/model_2/tf.nn.convolution_82/convolution", "1590"], "attr": {"T": {"type": "DT_FLOAT"}}}, {"name": "PartitionedCall/model_2/tf.concat_15/concat", "op": "ConcatV2", "input": ["PartitionedCall/model_2/tf.math.add_105/Add", "PartitionedCall/model_2/tf.math.add_106/Add", "PartitionedCall/model_2/tf.concat_15/concat/axis"], "attr": {"N": {"i": "2"}, "Tidx": {"type": "DT_INT32"}, "T": {"type": "DT_FLOAT"}}}, {"name": "PartitionedCall/model_2/tf.compat.v1.transpose_2/transpose", "op": "Transpose", "input": ["PartitionedCall/model_2/tf.concat_15/concat", "PartitionedCall/model_2/tf.compat.v1.transpose_2/transpose/perm"], "attr": {"Tperm": {"type": "DT_INT32"}, "T": {"type": "DT_FLOAT"}}}, {"name": "PartitionedCall/model_2/tf.reshape_2/Reshape", "op": "Reshape", "input": ["PartitionedCall/model_2/tf.compat.v1.transpose_2/transpose", "PartitionedCall/model_2/tf.reshape_2/Reshape/shape"], "attr": {"Tshape": {"type": "DT_INT32"}, "T": {"type": "DT_FLOAT"}}}, {"name": "PartitionedCall/model_2/tf.concat_16/concat", "op": "ConcatV2", "input": ["PartitionedCall/model_2/tf.reshape/Reshape", "PartitionedCall/model_2/tf.reshape_1/Reshape", "PartitionedCall/model_2/tf.reshape_2/Reshape", "PartitionedCall/model_2/tf.concat_16/concat/axis"], "attr": {"N": {"i": "3"}, "T": {"type": "DT_FLOAT"}, "Tidx": {"type": "DT_INT32"}}}, {"name": "PartitionedCall/model_2/tf.strided_slice_33/StridedSlice", "op": "StridedSlice", "input": ["PartitionedCall/model_2/tf.concat_16/concat", "1600", "1602", "PartitionedCall/model_2/tf.strided_slice_33/StridedSlice/strides"], "attr": {"end_mask": {"i": "5"}, "T": {"type": "DT_FLOAT"}, "new_axis_mask": {"i": "0"}, "shrink_axis_mask": {"i": "0"}, "ellipsis_mask": {"i": "0"}, "begin_mask": {"i": "7"}, "Index": {"type": "DT_INT64"}}}, {"name": "PartitionedCall/model_2/tf.strided_slice_35/StridedSlice", "op": "StridedSlice", "input": ["PartitionedCall/model_2/tf.concat_16/concat", "1620", "1622", "PartitionedCall/model_2/tf.strided_slice_35/StridedSlice/strides"], "attr": {"begin_mask": {"i": "5"}, "shrink_axis_mask": {"i": "0"}, "end_mask": {"i": "5"}, "T": {"type": "DT_FLOAT"}, "ellipsis_mask": {"i": "0"}, "new_axis_mask": {"i": "0"}, "Index": {"type": "DT_INT64"}}}, {"name": "PartitionedCall/model_2/tf.reshape_3/Reshape", "op": "Reshape", "input": ["PartitionedCall/model_2/tf.strided_slice_33/StridedSlice", "PartitionedCall/model_2/tf.reshape_3/Reshape/shape"], "attr": {"T": {"type": "DT_FLOAT"}, "Tshape": {"type": "DT_INT32"}}}, {"name": "PartitionedCall/model_2/tf.math.sigmoid_77/Sigmoid", "op": "Sigmoid", "input": ["PartitionedCall/model_2/tf.strided_slice_35/StridedSlice"], "attr": {"T": {"type": "DT_FLOAT"}}}, {"name": "PartitionedCall/model_2/tf.compat.v1.transpose_4/transpose", "op": "Transpose", "input": ["PartitionedCall/model_2/tf.reshape_3/Reshape", "PartitionedCall/model_2/tf.compat.v1.transpose_4/transpose/perm"], "attr": {"T": {"type": "DT_FLOAT"}, "Tperm": {"type": "DT_INT32"}}}, {"name": "PartitionedCall/model_2/tf.compat.v1.transpose_5/transpose", "op": "Transpose", "input": ["PartitionedCall/model_2/tf.compat.v1.transpose_4/transpose", "PartitionedCall/model_2/tf.compat.v1.transpose_5/transpose/perm"], "attr": {"Tperm": {"type": "DT_INT32"}, "T": {"type": "DT_FLOAT"}}}, {"name": "PartitionedCall/model_2/tf.nn.softmax_1/Softmax", "op": "Softmax", "input": ["PartitionedCall/model_2/tf.compat.v1.transpose_5/transpose"], "attr": {"T": {"type": "DT_FLOAT"}}}, {"name": "PartitionedCall/model_2/tf.nn.convolution_83/convolution", "op": "Conv2D", "input": ["PartitionedCall/model_2/tf.nn.softmax_1/Softmax", "1604"], "device": "/device:CPU:0", "attr": {"data_format": {"s": "TkhXQw=="}, "T": {"type": "DT_FLOAT"}, "padding": {"s": "U0FNRQ=="}, "strides": {"list": {"i": ["1", "1", "1", "1"]}}, "use_cudnn_on_gpu": {"b": true}, "explicit_paddings": {"list": {}}, "dilations": {"list": {"i": ["1", "1", "1", "1"]}}}}, {"name": "PartitionedCall/model_2/tf.compat.v1.transpose_8/transpose", "op": "Transpose", "input": ["PartitionedCall/model_2/tf.nn.convolution_83/convolution", "PartitionedCall/model_2/tf.compat.v1.transpose_8/transpose/perm"], "attr": {"T": {"type": "DT_FLOAT"}, "Tperm": {"type": "DT_INT32"}}}, {"name": "PartitionedCall/model_2/tf.reshape_4/Reshape", "op": "Reshape", "input": ["PartitionedCall/model_2/tf.compat.v1.transpose_8/transpose", "PartitionedCall/model_2/tf.reshape_4/Reshape/shape"], "attr": {"Tshape": {"type": "DT_INT32"}, "T": {"type": "DT_FLOAT"}}}, {"name": "PartitionedCall/model_2/tf.strided_slice_39/StridedSlice", "op": "StridedSlice", "input": ["PartitionedCall/model_2/tf.reshape_4/Reshape", "1606", "1608", "PartitionedCall/model_2/tf.strided_slice_39/ones_like"], "attr": {"begin_mask": {"i": "5"}, "T": {"type": "DT_FLOAT"}, "shrink_axis_mask": {"i": "0"}, "new_axis_mask": {"i": "0"}, "end_mask": {"i": "5"}, "Index": {"type": "DT_INT64"}, "ellipsis_mask": {"i": "0"}}}, {"name": "PartitionedCall/model_2/tf.strided_slice_37/StridedSlice", "op": "StridedSlice", "input": ["PartitionedCall/model_2/tf.reshape_4/Reshape", "1610", "1612", "PartitionedCall/model_2/tf.strided_slice_37/ones_like"], "attr": {"end_mask": {"i": "5"}, "Index": {"type": "DT_INT64"}, "new_axis_mask": {"i": "0"}, "shrink_axis_mask": {"i": "0"}, "ellipsis_mask": {"i": "0"}, "begin_mask": {"i": "7"}, "T": {"type": "DT_FLOAT"}}}, {"name": "PartitionedCall/model_2/tf.math.add_107/Add", "op": "AddV2", "input": ["1614", "PartitionedCall/model_2/tf.strided_slice_39/StridedSlice"], "attr": {"T": {"type": "DT_FLOAT"}}}, {"name": "PartitionedCall/model_2/tf.math.subtract/Sub", "op": "Sub", "input": ["1616", "PartitionedCall/model_2/tf.strided_slice_37/StridedSlice"], "attr": {"T": {"type": "DT_FLOAT"}}}, {"name": "PartitionedCall/model_2/tf.math.add_108/Add", "op": "AddV2", "input": ["PartitionedCall/model_2/tf.math.subtract/Sub", "PartitionedCall/model_2/tf.math.add_107/Add"], "attr": {"T": {"type": "DT_FLOAT"}}}, {"name": "PartitionedCall/model_2/tf.math.subtract_1/Sub", "op": "Sub", "input": ["PartitionedCall/model_2/tf.math.add_107/Add", "PartitionedCall/model_2/tf.math.subtract/Sub"], "attr": {"T": {"type": "DT_FLOAT"}}}, {"name": "PartitionedCall/model_2/tf.math.divide/truediv", "op": "Mul", "input": ["PartitionedCall/model_2/tf.math.add_108/Add", "ConstantFolding/PartitionedCall/model_2/tf.math.divide/truediv_recip"], "attr": {"T": {"type": "DT_FLOAT"}}}, {"name": "PartitionedCall/model_2/tf.concat_17/concat", "op": "ConcatV2", "input": ["PartitionedCall/model_2/tf.math.divide/truediv", "PartitionedCall/model_2/tf.math.subtract_1/Sub", "PartitionedCall/model_2/tf.concat_17/concat/axis"], "attr": {"N": {"i": "2"}, "T": {"type": "DT_FLOAT"}, "Tidx": {"type": "DT_INT32"}}}, {"name": "PartitionedCall/model_2/tf.math.multiply_251/Mul", "op": "Mul", "input": ["PartitionedCall/model_2/tf.concat_17/concat", "PartitionedCall/model_2/tf.math.multiply_251/Mul/y"], "attr": {"T": {"type": "DT_FLOAT"}}}, {"name": "PartitionedCall/model_2/output0/concat", "op": "ConcatV2", "input": ["PartitionedCall/model_2/tf.math.multiply_251/Mul", "PartitionedCall/model_2/tf.math.sigmoid_77/Sigmoid", "PartitionedCall/model_2/output0/concat/axis"], "attr": {"N": {"i": "2"}, "T": {"type": "DT_FLOAT"}, "Tidx": {"type": "DT_INT32"}}}, {"name": "Identity", "op": "Identity", "input": ["PartitionedCall/model_2/output0/concat"], "attr": {"T": {"type": "DT_FLOAT"}}}], "library": {}, "versions": {"producer": 1395}}, "weightsManifest": [{"paths": ["group1-shard1of25.bin", "group1-shard2of25.bin", "group1-shard3of25.bin", "group1-shard4of25.bin", "group1-shard5of25.bin", "group1-shard6of25.bin", "group1-shard7of25.bin", "group1-shard8of25.bin", "group1-shard9of25.bin", "group1-shard10of25.bin", "group1-shard11of25.bin", "group1-shard12of25.bin", "group1-shard13of25.bin", "group1-shard14of25.bin", "group1-shard15of25.bin", "group1-shard16of25.bin", "group1-shard17of25.bin", "group1-shard18of25.bin", "group1-shard19of25.bin", "group1-shard20of25.bin", "group1-shard21of25.bin", "group1-shard22of25.bin", "group1-shard23of25.bin", "group1-shard24of25.bin", "group1-shard25of25.bin"], "weights": [{"name": "ConstantFolding/PartitionedCall/model_2/tf.math.divide/truediv_recip", "shape": [1, 1, 1], "dtype": "float32"}, {"name": "1614", "shape": [1, 2, 3549], "dtype": "float32"}, {"name": "1606", "shape": [3], "dtype": "int32"}, {"name": "1608", "shape": [3], "dtype": "int32"}, {"name": "PartitionedCall/model_2/tf.strided_slice_39/ones_like", "shape": [3], "dtype": "int32"}, {"name": "1616", "shape": [1, 2, 3549], "dtype": "float32"}, {"name": "1600", "shape": [3], "dtype": "int32"}, {"name": "1602", "shape": [3], "dtype": "int32"}, {"name": "PartitionedCall/model_2/tf.strided_slice_33/StridedSlice/strides", "shape": [3], "dtype": "int32"}, {"name": "PartitionedCall/model_2/tf.reshape_3/Reshape/shape", "shape": [4], "dtype": "int32"}, {"name": "PartitionedCall/model_2/tf.compat.v1.transpose_4/transpose/perm", "shape": [4], "dtype": "int32"}, {"name": "PartitionedCall/model_2/tf.compat.v1.transpose_5/transpose/perm", "shape": [4], "dtype": "int32"}, {"name": "1604", "shape": [1, 1, 16, 1], "dtype": "float32"}, {"name": "PartitionedCall/model_2/tf.compat.v1.transpose_8/transpose/perm", "shape": [4], "dtype": "int32"}, {"name": "PartitionedCall/model_2/tf.reshape_4/Reshape/shape", "shape": [3], "dtype": "int32"}, {"name": "1610", "shape": [3], "dtype": "int32"}, {"name": "1612", "shape": [3], "dtype": "int32"}, {"name": "PartitionedCall/model_2/tf.strided_slice_37/ones_like", "shape": [3], "dtype": "int32"}, {"name": "PartitionedCall/model_2/tf.concat_17/concat/axis", "shape": [], "dtype": "int32"}, {"name": "PartitionedCall/model_2/tf.math.multiply_251/Mul/y", "shape": [1, 1, 3549], "dtype": "float32"}, {"name": "1538", "shape": [3, 3, 192, 64], "dtype": "float32"}, {"name": "1550", "shape": [64], "dtype": "float32"}, {"name": "1562", "shape": [3, 3, 64, 64], "dtype": "float32"}, {"name": "1574", "shape": [64], "dtype": "float32"}, {"name": "1586", "shape": [1, 1, 64, 64], "dtype": "float32"}, {"name": "1596", "shape": [64], "dtype": "float32"}, {"name": "1536", "shape": [3, 3, 192, 192], "dtype": "float32"}, {"name": "1548", "shape": [192], "dtype": "float32"}, {"name": "1560", "shape": [3, 3, 192, 192], "dtype": "float32"}, {"name": "1572", "shape": [192], "dtype": "float32"}, {"name": "1584", "shape": [1, 1, 192, 13], "dtype": "float32"}, {"name": "1598", "shape": [13], "dtype": "float32"}, {"name": "PartitionedCall/model_2/tf.concat_10/concat/axis", "shape": [], "dtype": "int32"}, {"name": "PartitionedCall/model_2/tf.compat.v1.transpose/transpose/perm", "shape": [4], "dtype": "int32"}, {"name": "PartitionedCall/model_2/tf.reshape/Reshape/shape", "shape": [3], "dtype": "int32"}, {"name": "1534", "shape": [3, 3, 384, 64], "dtype": "float32"}, {"name": "1546", "shape": [64], "dtype": "float32"}, {"name": "1558", "shape": [3, 3, 64, 64], "dtype": "float32"}, {"name": "1570", "shape": [64], "dtype": "float32"}, {"name": "1582", "shape": [1, 1, 64, 64], "dtype": "float32"}, {"name": "1592", "shape": [64], "dtype": "float32"}, {"name": "1532", "shape": [3, 3, 384, 192], "dtype": "float32"}, {"name": "1544", "shape": [192], "dtype": "float32"}, {"name": "1556", "shape": [3, 3, 192, 192], "dtype": "float32"}, {"name": "1568", "shape": [192], "dtype": "float32"}, {"name": "1580", "shape": [1, 1, 192, 13], "dtype": "float32"}, {"name": "1594", "shape": [13], "dtype": "float32"}, {"name": "PartitionedCall/model_2/tf.concat_13/concat/axis", "shape": [], "dtype": "int32"}, {"name": "PartitionedCall/model_2/tf.compat.v1.transpose_1/transpose/perm", "shape": [4], "dtype": "int32"}, {"name": "PartitionedCall/model_2/tf.reshape_1/Reshape/shape", "shape": [3], "dtype": "int32"}, {"name": "1530", "shape": [3, 3, 576, 64], "dtype": "float32"}, {"name": "1542", "shape": [64], "dtype": "float32"}, {"name": "1554", "shape": [3, 3, 64, 64], "dtype": "float32"}, {"name": "1566", "shape": [64], "dtype": "float32"}, {"name": "1578", "shape": [1, 1, 64, 64], "dtype": "float32"}, {"name": "1588", "shape": [64], "dtype": "float32"}, {"name": "1520", "shape": [4], "dtype": "int32"}, {"name": "1522", "shape": [4], "dtype": "int32"}, {"name": "PartitionedCall/model_2/tf.strided_slice_29/ones_like", "shape": [4], "dtype": "int32"}, {"name": "1482", "shape": [4], "dtype": "int32"}, {"name": "1484", "shape": [4], "dtype": "int32"}, {"name": "PartitionedCall/model_2/tf.strided_slice_25/ones_like", "shape": [4], "dtype": "int32"}, {"name": "1444", "shape": [4], "dtype": "int32"}, {"name": "1446", "shape": [4], "dtype": "int32"}, {"name": "PartitionedCall/model_2/tf.strided_slice_21/ones_like", "shape": [4], "dtype": "int32"}, {"name": "PartitionedCall/model_2/lambda_1//model.13/Resize/size", "shape": [2], "dtype": "int32"}, {"name": "PartitionedCall/model_2/tf.concat_7/concat/axis", "shape": [], "dtype": "int32"}, {"name": "1420", "shape": [1, 1, 576, 192], "dtype": "float32"}, {"name": "1422", "shape": [192], "dtype": "float32"}, {"name": "1424", "shape": [4], "dtype": "int32"}, {"name": "1426", "shape": [4], "dtype": "int32"}, {"name": "PartitionedCall/model_2/tf.strided_slice_23/ones_like", "shape": [4], "dtype": "int32"}, {"name": "1428", "shape": [3, 3, 96, 96], "dtype": "float32"}, {"name": "1430", "shape": [96], "dtype": "float32"}, {"name": "1432", "shape": [3, 3, 96, 96], "dtype": "float32"}, {"name": "1434", "shape": [96], "dtype": "float32"}, {"name": "1436", "shape": [3, 3, 96, 96], "dtype": "float32"}, {"name": "1438", "shape": [96], "dtype": "float32"}, {"name": "1440", "shape": [3, 3, 96, 96], "dtype": "float32"}, {"name": "1442", "shape": [96], "dtype": "float32"}, {"name": "PartitionedCall/model_2/tf.concat_8/concat/axis", "shape": [], "dtype": "int32"}, {"name": "1448", "shape": [1, 1, 384, 192], "dtype": "float32"}, {"name": "1450", "shape": [192], "dtype": "float32"}, {"name": "1452", "shape": [4, 2], "dtype": "int32"}, {"name": "1454", "shape": [3, 3, 192, 192], "dtype": "float32"}, {"name": "1456", "shape": [192], "dtype": "float32"}, {"name": "1412", "shape": [4], "dtype": "int32"}, {"name": "1414", "shape": [4], "dtype": "int32"}, {"name": "PartitionedCall/model_2/tf.strided_slice_17/ones_like", "shape": [4], "dtype": "int32"}, {"name": "PartitionedCall/model_2/lambda//model.10/Resize/size", "shape": [2], "dtype": "int32"}, {"name": "PartitionedCall/model_2/tf.concat_5/concat/axis", "shape": [], "dtype": "int32"}, {"name": "1388", "shape": [1, 1, 960, 384], "dtype": "float32"}, {"name": "1390", "shape": [384], "dtype": "float32"}, {"name": "1392", "shape": [4], "dtype": "int32"}, {"name": "1394", "shape": [4], "dtype": "int32"}, {"name": "PartitionedCall/model_2/tf.strided_slice_19/ones_like", "shape": [4], "dtype": "int32"}, {"name": "1396", "shape": [3, 3, 192, 192], "dtype": "float32"}, {"name": "1398", "shape": [192], "dtype": "float32"}, {"name": "1400", "shape": [3, 3, 192, 192], "dtype": "float32"}, {"name": "1402", "shape": [192], "dtype": "float32"}, {"name": "1404", "shape": [3, 3, 192, 192], "dtype": "float32"}, {"name": "1406", "shape": [192], "dtype": "float32"}, {"name": "1408", "shape": [3, 3, 192, 192], "dtype": "float32"}, {"name": "1410", "shape": [192], "dtype": "float32"}, {"name": "PartitionedCall/model_2/tf.concat_6/concat/axis", "shape": [], "dtype": "int32"}, {"name": "1416", "shape": [1, 1, 768, 384], "dtype": "float32"}, {"name": "1418", "shape": [384], "dtype": "float32"}, {"name": "PartitionedCall/model_2/tf.concat_9/concat/axis", "shape": [], "dtype": "int32"}, {"name": "1458", "shape": [1, 1, 576, 384], "dtype": "float32"}, {"name": "1460", "shape": [384], "dtype": "float32"}, {"name": "1462", "shape": [4], "dtype": "int32"}, {"name": "1464", "shape": [4], "dtype": "int32"}, {"name": "PartitionedCall/model_2/tf.strided_slice_27/ones_like", "shape": [4], "dtype": "int32"}, {"name": "1466", "shape": [3, 3, 192, 192], "dtype": "float32"}, {"name": "1468", "shape": [192], "dtype": "float32"}, {"name": "1470", "shape": [3, 3, 192, 192], "dtype": "float32"}, {"name": "1472", "shape": [192], "dtype": "float32"}, {"name": "1474", "shape": [3, 3, 192, 192], "dtype": "float32"}, {"name": "1476", "shape": [192], "dtype": "float32"}, {"name": "1478", "shape": [3, 3, 192, 192], "dtype": "float32"}, {"name": "1480", "shape": [192], "dtype": "float32"}, {"name": "PartitionedCall/model_2/tf.concat_11/concat/axis", "shape": [], "dtype": "int32"}, {"name": "1486", "shape": [1, 1, 768, 384], "dtype": "float32"}, {"name": "1488", "shape": [384], "dtype": "float32"}, {"name": "1490", "shape": [4, 2], "dtype": "int32"}, {"name": "1492", "shape": [3, 3, 384, 384], "dtype": "float32"}, {"name": "1494", "shape": [384], "dtype": "float32"}, {"name": "1372", "shape": [4], "dtype": "int32"}, {"name": "1374", "shape": [4], "dtype": "int32"}, {"name": "PartitionedCall/model_2/tf.strided_slice_13/ones_like", "shape": [4], "dtype": "int32"}, {"name": "1334", "shape": [4], "dtype": "int32"}, {"name": "1336", "shape": [4], "dtype": "int32"}, {"name": "PartitionedCall/model_2/tf.strided_slice_9/ones_like", "shape": [4], "dtype": "int32"}, {"name": "1280", "shape": [4], "dtype": "int32"}, {"name": "1282", "shape": [4], "dtype": "int32"}, {"name": "PartitionedCall/model_2/tf.strided_slice_5/ones_like", "shape": [4], "dtype": "int32"}, {"name": "1226", "shape": [4], "dtype": "int32"}, {"name": "1228", "shape": [4], "dtype": "int32"}, {"name": "PartitionedCall/model_2/tf.strided_slice_1/ones_like", "shape": [4], "dtype": "int32"}, {"name": "1190", "shape": [4, 2], "dtype": "int32"}, {"name": "1192", "shape": [3, 3, 3, 48], "dtype": "float32"}, {"name": "1194", "shape": [48], "dtype": "float32"}, {"name": "1196", "shape": [4, 2], "dtype": "int32"}, {"name": "1198", "shape": [3, 3, 48, 96], "dtype": "float32"}, {"name": "1200", "shape": [96], "dtype": "float32"}, {"name": "1202", "shape": [1, 1, 96, 96], "dtype": "float32"}, {"name": "1204", "shape": [96], "dtype": "float32"}, {"name": "1206", "shape": [4], "dtype": "int32"}, {"name": "1208", "shape": [4], "dtype": "int32"}, {"name": "PartitionedCall/model_2/tf.strided_slice_3/ones_like", "shape": [4], "dtype": "int32"}, {"name": "1210", "shape": [3, 3, 48, 48], "dtype": "float32"}, {"name": "1212", "shape": [48], "dtype": "float32"}, {"name": "1214", "shape": [3, 3, 48, 48], "dtype": "float32"}, {"name": "1216", "shape": [48], "dtype": "float32"}, {"name": "1218", "shape": [3, 3, 48, 48], "dtype": "float32"}, {"name": "1220", "shape": [48], "dtype": "float32"}, {"name": "1222", "shape": [3, 3, 48, 48], "dtype": "float32"}, {"name": "1224", "shape": [48], "dtype": "float32"}, {"name": "PartitionedCall/model_2/tf.concat/concat/axis", "shape": [], "dtype": "int32"}, {"name": "1230", "shape": [1, 1, 192, 96], "dtype": "float32"}, {"name": "1232", "shape": [96], "dtype": "float32"}, {"name": "1234", "shape": [4, 2], "dtype": "int32"}, {"name": "1236", "shape": [3, 3, 96, 192], "dtype": "float32"}, {"name": "1238", "shape": [192], "dtype": "float32"}, {"name": "1240", "shape": [1, 1, 192, 192], "dtype": "float32"}, {"name": "1242", "shape": [192], "dtype": "float32"}, {"name": "1244", "shape": [4], "dtype": "int32"}, {"name": "1246", "shape": [4], "dtype": "int32"}, {"name": "PartitionedCall/model_2/tf.strided_slice_7/ones_like", "shape": [4], "dtype": "int32"}, {"name": "1248", "shape": [3, 3, 96, 96], "dtype": "float32"}, {"name": "1250", "shape": [96], "dtype": "float32"}, {"name": "1252", "shape": [3, 3, 96, 96], "dtype": "float32"}, {"name": "1254", "shape": [96], "dtype": "float32"}, {"name": "1256", "shape": [3, 3, 96, 96], "dtype": "float32"}, {"name": "1258", "shape": [96], "dtype": "float32"}, {"name": "1260", "shape": [3, 3, 96, 96], "dtype": "float32"}, {"name": "1262", "shape": [96], "dtype": "float32"}, {"name": "1264", "shape": [3, 3, 96, 96], "dtype": "float32"}, {"name": "1266", "shape": [96], "dtype": "float32"}, {"name": "1268", "shape": [3, 3, 96, 96], "dtype": "float32"}, {"name": "1270", "shape": [96], "dtype": "float32"}, {"name": "1272", "shape": [3, 3, 96, 96], "dtype": "float32"}, {"name": "1274", "shape": [96], "dtype": "float32"}, {"name": "1276", "shape": [3, 3, 96, 96], "dtype": "float32"}, {"name": "1278", "shape": [96], "dtype": "float32"}, {"name": "PartitionedCall/model_2/tf.concat_1/concat/axis", "shape": [], "dtype": "int32"}, {"name": "1284", "shape": [1, 1, 576, 192], "dtype": "float32"}, {"name": "1286", "shape": [192], "dtype": "float32"}, {"name": "1288", "shape": [4, 2], "dtype": "int32"}, {"name": "1290", "shape": [3, 3, 192, 384], "dtype": "float32"}, {"name": "1292", "shape": [384], "dtype": "float32"}, {"name": "1294", "shape": [1, 1, 384, 384], "dtype": "float32"}, {"name": "1296", "shape": [384], "dtype": "float32"}, {"name": "1298", "shape": [4], "dtype": "int32"}, {"name": "1300", "shape": [4], "dtype": "int32"}, {"name": "PartitionedCall/model_2/tf.strided_slice_11/ones_like", "shape": [4], "dtype": "int32"}, {"name": "1302", "shape": [3, 3, 192, 192], "dtype": "float32"}, {"name": "1304", "shape": [192], "dtype": "float32"}, {"name": "1306", "shape": [3, 3, 192, 192], "dtype": "float32"}, {"name": "1308", "shape": [192], "dtype": "float32"}, {"name": "1310", "shape": [3, 3, 192, 192], "dtype": "float32"}, {"name": "1312", "shape": [192], "dtype": "float32"}, {"name": "1314", "shape": [3, 3, 192, 192], "dtype": "float32"}, {"name": "1316", "shape": [192], "dtype": "float32"}, {"name": "1318", "shape": [3, 3, 192, 192], "dtype": "float32"}, {"name": "1320", "shape": [192], "dtype": "float32"}, {"name": "1322", "shape": [3, 3, 192, 192], "dtype": "float32"}, {"name": "1324", "shape": [192], "dtype": "float32"}, {"name": "1326", "shape": [3, 3, 192, 192], "dtype": "float32"}, {"name": "1328", "shape": [192], "dtype": "float32"}, {"name": "1330", "shape": [3, 3, 192, 192], "dtype": "float32"}, {"name": "1332", "shape": [192], "dtype": "float32"}, {"name": "PartitionedCall/model_2/tf.concat_2/concat/axis", "shape": [], "dtype": "int32"}, {"name": "1338", "shape": [1, 1, 1152, 384], "dtype": "float32"}, {"name": "1340", "shape": [384], "dtype": "float32"}, {"name": "1342", "shape": [4, 2], "dtype": "int32"}, {"name": "1344", "shape": [3, 3, 384, 576], "dtype": "float32"}, {"name": "1346", "shape": [576], "dtype": "float32"}, {"name": "1348", "shape": [1, 1, 576, 576], "dtype": "float32"}, {"name": "1350", "shape": [576], "dtype": "float32"}, {"name": "1352", "shape": [4], "dtype": "int32"}, {"name": "1354", "shape": [4], "dtype": "int32"}, {"name": "PartitionedCall/model_2/tf.strided_slice_15/ones_like", "shape": [4], "dtype": "int32"}, {"name": "1356", "shape": [3, 3, 288, 288], "dtype": "float32"}, {"name": "1358", "shape": [288], "dtype": "float32"}, {"name": "1360", "shape": [3, 3, 288, 288], "dtype": "float32"}, {"name": "1362", "shape": [288], "dtype": "float32"}, {"name": "1364", "shape": [3, 3, 288, 288], "dtype": "float32"}, {"name": "1366", "shape": [288], "dtype": "float32"}, {"name": "1368", "shape": [3, 3, 288, 288], "dtype": "float32"}, {"name": "1370", "shape": [288], "dtype": "float32"}, {"name": "PartitionedCall/model_2/tf.concat_3/concat/axis", "shape": [], "dtype": "int32"}, {"name": "1376", "shape": [1, 1, 1152, 576], "dtype": "float32"}, {"name": "1378", "shape": [576], "dtype": "float32"}, {"name": "1380", "shape": [1, 1, 576, 288], "dtype": "float32"}, {"name": "1382", "shape": [288], "dtype": "float32"}, {"name": "PartitionedCall/model_2/tf.concat_4/concat/axis", "shape": [], "dtype": "int32"}, {"name": "1384", "shape": [1, 1, 1152, 576], "dtype": "float32"}, {"name": "1386", "shape": [576], "dtype": "float32"}, {"name": "PartitionedCall/model_2/tf.concat_12/concat/axis", "shape": [], "dtype": "int32"}, {"name": "1496", "shape": [1, 1, 960, 576], "dtype": "float32"}, {"name": "1498", "shape": [576], "dtype": "float32"}, {"name": "1500", "shape": [4], "dtype": "int32"}, {"name": "1502", "shape": [4], "dtype": "int32"}, {"name": "PartitionedCall/model_2/tf.strided_slice_31/ones_like", "shape": [4], "dtype": "int32"}, {"name": "1504", "shape": [3, 3, 288, 288], "dtype": "float32"}, {"name": "1506", "shape": [288], "dtype": "float32"}, {"name": "1508", "shape": [3, 3, 288, 288], "dtype": "float32"}, {"name": "1510", "shape": [288], "dtype": "float32"}, {"name": "1512", "shape": [3, 3, 288, 288], "dtype": "float32"}, {"name": "1514", "shape": [288], "dtype": "float32"}, {"name": "1516", "shape": [3, 3, 288, 288], "dtype": "float32"}, {"name": "1518", "shape": [288], "dtype": "float32"}, {"name": "PartitionedCall/model_2/tf.concat_14/concat/axis", "shape": [], "dtype": "int32"}, {"name": "1524", "shape": [1, 1, 1152, 576], "dtype": "float32"}, {"name": "1526", "shape": [576], "dtype": "float32"}, {"name": "1528", "shape": [3, 3, 576, 192], "dtype": "float32"}, {"name": "1540", "shape": [192], "dtype": "float32"}, {"name": "1552", "shape": [3, 3, 192, 192], "dtype": "float32"}, {"name": "1564", "shape": [192], "dtype": "float32"}, {"name": "1576", "shape": [1, 1, 192, 13], "dtype": "float32"}, {"name": "1590", "shape": [13], "dtype": "float32"}, {"name": "PartitionedCall/model_2/tf.concat_15/concat/axis", "shape": [], "dtype": "int32"}, {"name": "PartitionedCall/model_2/tf.compat.v1.transpose_2/transpose/perm", "shape": [4], "dtype": "int32"}, {"name": "PartitionedCall/model_2/tf.reshape_2/Reshape/shape", "shape": [3], "dtype": "int32"}, {"name": "PartitionedCall/model_2/tf.concat_16/concat/axis", "shape": [], "dtype": "int32"}, {"name": "1620", "shape": [3], "dtype": "int32"}, {"name": "1622", "shape": [3], "dtype": "int32"}, {"name": "PartitionedCall/model_2/tf.strided_slice_35/StridedSlice/strides", "shape": [3], "dtype": "int32"}, {"name": "PartitionedCall/model_2/output0/concat/axis", "shape": [], "dtype": "int32"}]}]}